#loc0 = loc(unknown)
module  {
  func @graph(%arg0: tensor<10xf32> {tf.aliasing_output = 44 : i64, tf.resource_name = "state.model.model.last_layer.bias"} loc(unknown), %arg1: tensor<10x128xf32> {tf.aliasing_output = 24 : i64, tf.resource_name = "state.model.model.last_layer.weight"} loc(unknown), %arg2: tensor<128xf32> {tf.aliasing_output = 39 : i64, tf.resource_name = "state.model.model.fc_layers.2.bias"} loc(unknown), %arg3: tensor<128x128xf32> {tf.aliasing_output = 19 : i64, tf.resource_name = "state.model.model.fc_layers.2.weight"} loc(unknown), %arg4: tensor<128xf32> {tf.aliasing_output = 34 : i64, tf.resource_name = "state.model.model.fc_layers.1.bias"} loc(unknown), %arg5: tensor<128x128xf32> {tf.aliasing_output = 14 : i64, tf.resource_name = "state.model.model.fc_layers.1.weight"} loc(unknown), %arg6: tensor<128xf32> {tf.aliasing_output = 29 : i64, tf.resource_name = "state.model.model.fc_layers.0.bias"} loc(unknown), %arg7: tensor<128x784xf32> {tf.aliasing_output = 9 : i64, tf.resource_name = "state.model.model.fc_layers.0.weight"} loc(unknown), %arg8: tensor<64x1x28x28xf16> {cs.input_name = "input_0"} loc(unknown), %arg9: tensor<64xi32> {cs.input_name = "input_1"} loc(unknown), %arg10: tensor<128x784xf32> {tf.aliasing_output = 5 : i64, tf.resource_name = "state.optimizer.state.0.exp_avg"} loc(unknown), %arg11: tensor<128x784xf32> {tf.aliasing_output = 6 : i64, tf.resource_name = "state.optimizer.state.0.exp_avg_sq"} loc(unknown), %arg12: tensor<f32> {tf.aliasing_output = 7 : i64, tf.resource_name = "state.optimizer.state.0.beta1_power"} loc(unknown), %arg13: tensor<f32> {tf.aliasing_output = 8 : i64, tf.resource_name = "state.optimizer.state.0.beta2_power"} loc(unknown), %arg14: tensor<128x128xf32> {tf.aliasing_output = 10 : i64, tf.resource_name = "state.optimizer.state.1.exp_avg"} loc(unknown), %arg15: tensor<128x128xf32> {tf.aliasing_output = 11 : i64, tf.resource_name = "state.optimizer.state.1.exp_avg_sq"} loc(unknown), %arg16: tensor<f32> {tf.aliasing_output = 12 : i64, tf.resource_name = "state.optimizer.state.1.beta1_power"} loc(unknown), %arg17: tensor<f32> {tf.aliasing_output = 13 : i64, tf.resource_name = "state.optimizer.state.1.beta2_power"} loc(unknown), %arg18: tensor<128x128xf32> {tf.aliasing_output = 15 : i64, tf.resource_name = "state.optimizer.state.2.exp_avg"} loc(unknown), %arg19: tensor<128x128xf32> {tf.aliasing_output = 16 : i64, tf.resource_name = "state.optimizer.state.2.exp_avg_sq"} loc(unknown), %arg20: tensor<f32> {tf.aliasing_output = 17 : i64, tf.resource_name = "state.optimizer.state.2.beta1_power"} loc(unknown), %arg21: tensor<f32> {tf.aliasing_output = 18 : i64, tf.resource_name = "state.optimizer.state.2.beta2_power"} loc(unknown), %arg22: tensor<10x128xf32> {tf.aliasing_output = 20 : i64, tf.resource_name = "state.optimizer.state.3.exp_avg"} loc(unknown), %arg23: tensor<10x128xf32> {tf.aliasing_output = 21 : i64, tf.resource_name = "state.optimizer.state.3.exp_avg_sq"} loc(unknown), %arg24: tensor<f32> {tf.aliasing_output = 22 : i64, tf.resource_name = "state.optimizer.state.3.beta1_power"} loc(unknown), %arg25: tensor<f32> {tf.aliasing_output = 23 : i64, tf.resource_name = "state.optimizer.state.3.beta2_power"} loc(unknown), %arg26: tensor<128xf32> {tf.aliasing_output = 25 : i64, tf.resource_name = "state.optimizer.state.4.exp_avg"} loc(unknown), %arg27: tensor<128xf32> {tf.aliasing_output = 26 : i64, tf.resource_name = "state.optimizer.state.4.exp_avg_sq"} loc(unknown), %arg28: tensor<f32> {tf.aliasing_output = 27 : i64, tf.resource_name = "state.optimizer.state.4.beta1_power"} loc(unknown), %arg29: tensor<f32> {tf.aliasing_output = 28 : i64, tf.resource_name = "state.optimizer.state.4.beta2_power"} loc(unknown), %arg30: tensor<128xf32> {tf.aliasing_output = 30 : i64, tf.resource_name = "state.optimizer.state.5.exp_avg"} loc(unknown), %arg31: tensor<128xf32> {tf.aliasing_output = 31 : i64, tf.resource_name = "state.optimizer.state.5.exp_avg_sq"} loc(unknown), %arg32: tensor<f32> {tf.aliasing_output = 32 : i64, tf.resource_name = "state.optimizer.state.5.beta1_power"} loc(unknown), %arg33: tensor<f32> {tf.aliasing_output = 33 : i64, tf.resource_name = "state.optimizer.state.5.beta2_power"} loc(unknown), %arg34: tensor<128xf32> {tf.aliasing_output = 35 : i64, tf.resource_name = "state.optimizer.state.6.exp_avg"} loc(unknown), %arg35: tensor<128xf32> {tf.aliasing_output = 36 : i64, tf.resource_name = "state.optimizer.state.6.exp_avg_sq"} loc(unknown), %arg36: tensor<f32> {tf.aliasing_output = 37 : i64, tf.resource_name = "state.optimizer.state.6.beta1_power"} loc(unknown), %arg37: tensor<f32> {tf.aliasing_output = 38 : i64, tf.resource_name = "state.optimizer.state.6.beta2_power"} loc(unknown), %arg38: tensor<10xf32> {tf.aliasing_output = 40 : i64, tf.resource_name = "state.optimizer.state.7.exp_avg"} loc(unknown), %arg39: tensor<10xf32> {tf.aliasing_output = 41 : i64, tf.resource_name = "state.optimizer.state.7.exp_avg_sq"} loc(unknown), %arg40: tensor<f32> {tf.aliasing_output = 42 : i64, tf.resource_name = "state.optimizer.state.7.beta1_power"} loc(unknown), %arg41: tensor<f32> {tf.aliasing_output = 43 : i64, tf.resource_name = "state.optimizer.state.7.beta2_power"} loc(unknown), %arg42: tensor<i64> {tf.aliasing_output = 46 : i64, tf.resource_name = "state.schedulers.0.last_epoch"} loc(unknown)) -> (tensor<f32> {cs.output_name = "output_model_wise_params_norm"}, tensor<f32> {cs.output_name = "output_model_wise_grad_norm"}, tensor<f32> {cs.output_name = "output_per_layer_grad_norm/layer_0"}, tensor<f32> {cs.output_name = "output_per_layer_grad_norm/layer_1"}, tensor<f32> {cs.output_name = "output_per_layer_grad_norm/layer_2"}, tensor<128x784xf32>, tensor<128x784xf32>, tensor<f32>, tensor<f32>, tensor<128x784xf32>, tensor<128x128xf32>, tensor<128x128xf32>, tensor<f32>, tensor<f32>, tensor<128x128xf32>, tensor<128x128xf32>, tensor<128x128xf32>, tensor<f32>, tensor<f32>, tensor<128x128xf32>, tensor<10x128xf32>, tensor<10x128xf32>, tensor<f32>, tensor<f32>, tensor<10x128xf32>, tensor<128xf32>, tensor<128xf32>, tensor<f32>, tensor<f32>, tensor<128xf32>, tensor<128xf32>, tensor<128xf32>, tensor<f32>, tensor<f32>, tensor<128xf32>, tensor<128xf32>, tensor<128xf32>, tensor<f32>, tensor<f32>, tensor<128xf32>, tensor<10xf32>, tensor<10xf32>, tensor<f32>, tensor<f32>, tensor<10xf32>, tensor<f32> {cs.output_name = "output_lr/1"}, tensor<i64>, tensor<f32> {cs.output_name = "output_values_1"}, tensor<f32> {cs.output_name = "output_loss"}) attributes {cs.fp16_type = "float16", cs.pol = 1 : i64} {
    %cst = cirh.Const dense<1.000000e-03> : tensor<10xf32> loc(#loc1)
    %cst_0 = cirh.Const dense<9.99999997E-7> : tensor<10xf32> loc(#loc2)
    %cst_1 = cirh.Const dense<9.99987125E-4> : tensor<10xf32> loc(#loc3)
    %cst_2 = cirh.Const dense<9.990000e-01> : tensor<10xf32> loc(#loc4)
    %cst_3 = cirh.Const dense<0.100000024> : tensor<10xf32> loc(#loc5)
    %cst_4 = cirh.Const dense<0.899999976> : tensor<10xf32> loc(#loc6)
    %cst_5 = cirh.Const dense<1.000000e-03> : tensor<128xf32> loc(#loc1)
    %cst_6 = cirh.Const dense<9.99999997E-7> : tensor<128xf32> loc(#loc2)
    %cst_7 = cirh.Const dense<9.99987125E-4> : tensor<128xf32> loc(#loc3)
    %cst_8 = cirh.Const dense<9.990000e-01> : tensor<128xf32> loc(#loc4)
    %cst_9 = cirh.Const dense<0.100000024> : tensor<128xf32> loc(#loc5)
    %cst_10 = cirh.Const dense<0.899999976> : tensor<128xf32> loc(#loc6)
    %cst_11 = cirh.Const dense<1.000000e-03> : tensor<10x128xf32> loc(#loc1)
    %cst_12 = cirh.Const dense<9.99999997E-7> : tensor<10x128xf32> loc(#loc2)
    %cst_13 = cirh.Const dense<9.99987125E-4> : tensor<10x128xf32> loc(#loc3)
    %cst_14 = cirh.Const dense<9.990000e-01> : tensor<10x128xf32> loc(#loc4)
    %cst_15 = cirh.Const dense<0.100000024> : tensor<10x128xf32> loc(#loc5)
    %cst_16 = cirh.Const dense<0.899999976> : tensor<10x128xf32> loc(#loc6)
    %cst_17 = cirh.Const dense<1.000000e-03> : tensor<128x128xf32> loc(#loc1)
    %cst_18 = cirh.Const dense<9.99999997E-7> : tensor<128x128xf32> loc(#loc2)
    %cst_19 = cirh.Const dense<9.99987125E-4> : tensor<128x128xf32> loc(#loc3)
    %cst_20 = cirh.Const dense<9.990000e-01> : tensor<128x128xf32> loc(#loc4)
    %cst_21 = cirh.Const dense<0.100000024> : tensor<128x128xf32> loc(#loc5)
    %cst_22 = cirh.Const dense<0.899999976> : tensor<128x128xf32> loc(#loc6)
    %cst_23 = cirh.Const dense<1.000000e-03> : tensor<128x784xf32> loc(#loc1)
    %cst_24 = cirh.Const dense<9.99999997E-7> : tensor<128x784xf32> loc(#loc2)
    %cst_25 = cirh.Const dense<9.99987125E-4> : tensor<128x784xf32> loc(#loc3)
    %cst_26 = cirh.Const dense<9.990000e-01> : tensor<128x784xf32> loc(#loc4)
    %cst_27 = cirh.Const dense<0.100000024> : tensor<128x784xf32> loc(#loc5)
    %cst_28 = cirh.Const dense<0.899999976> : tensor<128x784xf32> loc(#loc6)
    %cst_29 = cirh.Const dense<0.000000e+00> : tensor<64x128xf16> loc(#loc7)
    %cst_30 = cirh.Const dense<0.000000e+00> : tensor<f16> loc(#loc8)
    %cst_31 = cirh.Const dense<7.998050e-01> : tensor<64x128xf16> loc(#loc8)
    %cst_32 = cirh.Const dense<1.000000e+00> : tensor<f16> loc(#loc9)
    %cst_33 = cirh.Const dense<[64, 128]> : tensor<2xi64> loc(#loc8)
    %cst_34 = cirh.Const dense<1.000000e+00> : tensor<f32> loc(#loc10)
    %cst_35 = cirh.Const dense<1.000000e-03> : tensor<f32> loc(#loc0)
    %cst_36 = cirh.Const dense<9.990000e-01> : tensor<f32> loc(#loc0)
    %cst_37 = cirh.Const dense<0.899999976> : tensor<f32> loc(#loc0)
    %cst_38 = cirh.Const dense<1> : tensor<i64> loc(#loc0)
    %cst_39 = cirh.Const dense<6.400000e+01> : tensor<64x10xf32> loc(#loc10)
    %cst_40 = cirh.Const dense<6.400000e+01> : tensor<f32> loc(#loc10)
    %0 = cirh.L2Norm %arg0 {dims = dense<0> : tensor<1xi64>, keepdim = false} : (tensor<10xf32>) -> tensor<f32> loc(#loc11)
    %1 = cirh.Mul %0, %0 : tensor<f32> loc(#loc12)
    %2 = cirh.L2Norm %arg1 {dims = dense<[0, 1]> : tensor<2xi64>, keepdim = false} : (tensor<10x128xf32>) -> tensor<f32> loc(#loc11)
    %3 = cirh.Mul %2, %2 : tensor<f32> loc(#loc12)
    %4 = cirh.L2Norm %arg2 {dims = dense<0> : tensor<1xi64>, keepdim = false} : (tensor<128xf32>) -> tensor<f32> loc(#loc11)
    %5 = cirh.Mul %4, %4 : tensor<f32> loc(#loc12)
    %6 = cirh.L2Norm %arg3 {dims = dense<[0, 1]> : tensor<2xi64>, keepdim = false} : (tensor<128x128xf32>) -> tensor<f32> loc(#loc11)
    %7 = cirh.Mul %6, %6 : tensor<f32> loc(#loc12)
    %8 = cirh.L2Norm %arg4 {dims = dense<0> : tensor<1xi64>, keepdim = false} : (tensor<128xf32>) -> tensor<f32> loc(#loc11)
    %9 = cirh.Mul %8, %8 : tensor<f32> loc(#loc12)
    %10 = cirh.L2Norm %arg5 {dims = dense<[0, 1]> : tensor<2xi64>, keepdim = false} : (tensor<128x128xf32>) -> tensor<f32> loc(#loc11)
    %11 = cirh.Mul %10, %10 : tensor<f32> loc(#loc12)
    %12 = cirh.L2Norm %arg6 {dims = dense<0> : tensor<1xi64>, keepdim = false} : (tensor<128xf32>) -> tensor<f32> loc(#loc11)
    %13 = cirh.Mul %12, %12 : tensor<f32> loc(#loc12)
    %14 = cirh.L2Norm %arg7 {dims = dense<[0, 1]> : tensor<2xi64>, keepdim = false} : (tensor<128x784xf32>) -> tensor<f32> loc(#loc11)
    %15 = cirh.Mul %14, %14 : tensor<f32> loc(#loc12)
    %16 = cirh.Add %15, %13 : tensor<f32> loc(#loc13)
    %17 = cirh.Add %16, %11 : tensor<f32> loc(#loc13)
    %18 = cirh.Add %17, %9 : tensor<f32> loc(#loc13)
    %19 = cirh.Add %18, %7 : tensor<f32> loc(#loc13)
    %20 = cirh.Add %19, %5 : tensor<f32> loc(#loc13)
    %21 = cirh.Add %20, %3 : tensor<f32> loc(#loc13)
    %22 = cirh.Add %21, %1 : tensor<f32> loc(#loc13)
    %23 = cirh.Sqrt %22 : tensor<f32> loc(#loc14)
    %24 = cirh.Cast %arg1 {Truncate = false} : tensor<10x128xf32> -> tensor<10x128xf16> loc(#loc15)
    %25 = cirh.Cast %arg3 {Truncate = false} : tensor<128x128xf32> -> tensor<128x128xf16> loc(#loc16)
    %26 = cirh.Cast %arg5 {Truncate = false} : tensor<128x128xf32> -> tensor<128x128xf16> loc(#loc17)
    %27 = cirh.Cast %arg7 {Truncate = false} : tensor<128x784xf32> -> tensor<128x784xf16> loc(#loc18)
    %28 = cirh.Reshape %arg8 : (tensor<64x1x28x28xf16>) -> tensor<64x784xf16> loc(#loc19)
    %29 = cirh.Cast %arg6 {Truncate = false} : tensor<128xf32> -> tensor<128xf16> loc(#loc18)
    %30 = cirh.MatMul %28, %27 {cs.internal = {}, transpose_a = false, transpose_b = true} : (tensor<64x784xf16>, tensor<128x784xf16>) -> tensor<64x128xf16> loc(#loc9)
    %31 = cirh.BroadcastInDim %29 {broadcast_dimensions = dense<1> : tensor<1xi64>} : (tensor<128xf16>) -> tensor<64x128xf16> loc(#loc9)
    %32 = cirh.Add %31, %30 : tensor<64x128xf16> loc(#loc9)
    %33 = cirh.Relu %32 : tensor<64x128xf16> loc(#loc20)
    %34 = cirh.RandomUniform %cst_30, %cst_32, %cst_33 {global_seed = 1 : i64} : (tensor<f16>, tensor<f16>, tensor<2xi64>) -> tensor<64x128xf16> loc(#loc8)
    %35 = cirh.Compare %34, %cst_31 {comparison_direction = "LT"} : tensor<64x128xf16> -> tensor<64x128xi1> loc(#loc8)
    %36 = cirh.Cast %35 {Truncate = false} : tensor<64x128xi1> -> tensor<64x128xf16> loc(#loc8)
    %37 = cirh.Div %36, %cst_31 : tensor<64x128xf16> loc(#loc8)
    %38 = cirh.Mul %33, %37 : tensor<64x128xf16> loc(#loc8)
    %39 = cirh.Cast %arg4 {Truncate = false} : tensor<128xf32> -> tensor<128xf16> loc(#loc17)
    %40 = cirh.MatMul %38, %26 {cs.internal = {}, transpose_a = false, transpose_b = true} : (tensor<64x128xf16>, tensor<128x128xf16>) -> tensor<64x128xf16> loc(#loc21)
    %41 = cirh.BroadcastInDim %39 {broadcast_dimensions = dense<1> : tensor<1xi64>} : (tensor<128xf16>) -> tensor<64x128xf16> loc(#loc21)
    %42 = cirh.Add %41, %40 : tensor<64x128xf16> loc(#loc21)
    %43 = cirh.Relu %42 : tensor<64x128xf16> loc(#loc22)
    %44 = cirh.RandomUniform %cst_30, %cst_32, %cst_33 {global_seed = 1 : i64} : (tensor<f16>, tensor<f16>, tensor<2xi64>) -> tensor<64x128xf16> loc(#loc23)
    %45 = cirh.Compare %44, %cst_31 {comparison_direction = "LT"} : tensor<64x128xf16> -> tensor<64x128xi1> loc(#loc23)
    %46 = cirh.Cast %45 {Truncate = false} : tensor<64x128xi1> -> tensor<64x128xf16> loc(#loc23)
    %47 = cirh.Div %46, %cst_31 : tensor<64x128xf16> loc(#loc23)
    %48 = cirh.Mul %43, %47 : tensor<64x128xf16> loc(#loc23)
    %49 = cirh.Cast %arg2 {Truncate = false} : tensor<128xf32> -> tensor<128xf16> loc(#loc16)
    %50 = cirh.MatMul %48, %25 {cs.internal = {}, transpose_a = false, transpose_b = true} : (tensor<64x128xf16>, tensor<128x128xf16>) -> tensor<64x128xf16> loc(#loc24)
    %51 = cirh.BroadcastInDim %49 {broadcast_dimensions = dense<1> : tensor<1xi64>} : (tensor<128xf16>) -> tensor<64x128xf16> loc(#loc24)
    %52 = cirh.Add %51, %50 : tensor<64x128xf16> loc(#loc24)
    %53 = cirh.Relu %52 : tensor<64x128xf16> loc(#loc25)
    %54 = cirh.RandomUniform %cst_30, %cst_32, %cst_33 {global_seed = 1 : i64} : (tensor<f16>, tensor<f16>, tensor<2xi64>) -> tensor<64x128xf16> loc(#loc26)
    %55 = cirh.Compare %54, %cst_31 {comparison_direction = "LT"} : tensor<64x128xf16> -> tensor<64x128xi1> loc(#loc26)
    %56 = cirh.Cast %55 {Truncate = false} : tensor<64x128xi1> -> tensor<64x128xf16> loc(#loc26)
    %57 = cirh.Div %56, %cst_31 : tensor<64x128xf16> loc(#loc26)
    %58 = cirh.Mul %53, %57 : tensor<64x128xf16> loc(#loc26)
    %59 = cirh.Cast %arg0 {Truncate = false} : tensor<10xf32> -> tensor<10xf16> loc(#loc15)
    %60 = cirh.MatMul %58, %24 {cs.internal = {}, transpose_a = false, transpose_b = true} : (tensor<64x128xf16>, tensor<10x128xf16>) -> tensor<64x10xf16> loc(#loc27)
    %61 = cirh.BroadcastInDim %59 {broadcast_dimensions = dense<1> : tensor<1xi64>} : (tensor<10xf16>) -> tensor<64x10xf16> loc(#loc27)
    %62 = cirh.Add %61, %60 : tensor<64x10xf16> loc(#loc27)
    %63 = cirh.Cast %62 {Truncate = false} : tensor<64x10xf16> -> tensor<64x10xf32> loc(#loc28)
    %loss, %backprop = cirh.SparseSoftmaxCrossEntropyWithLogits %63, %arg9 {axis = 1 : i64} : (tensor<64x10xf32>, tensor<64xi32>) -> (tensor<64xf32>, tensor<64x10xf32>) loc(#loc10)
    %64 = cirh.Reduce %loss {dimensions = dense<0> : tensor<1xi64>, keep_dims = dense<> : tensor<0xi64>, reduce_kind = "ADD"} : (tensor<64xf32>) -> tensor<f32> loc(#loc10)
    %65 = cirh.Div %64, %cst_40 : tensor<f32> loc(#loc10)
    %66 = cirh.Div %backprop, %cst_39 : tensor<64x10xf32> loc(#loc10)
    %67 = cirh.Cast %66 {Truncate = false} : tensor<64x10xf32> -> tensor<64x10xf16> loc(#loc29)
    %68 = cirh.Reduce %67 {dimensions = dense<0> : tensor<1xi64>, keep_dims = dense<> : tensor<0xi64>, reduce_kind = "ADD"} : (tensor<64x10xf16>) -> tensor<10xf16> loc(#loc30)
    %69 = cirh.BroadcastInDim %68 {broadcast_dimensions = dense<1> : tensor<1xi64>} : (tensor<10xf16>) -> tensor<1x10xf16> loc(#loc30)
    %70 = cirh.Reshape %69 : (tensor<1x10xf16>) -> tensor<10xf16> loc(#loc31)
    %71 = cirh.Cast %70 {Truncate = false} : tensor<10xf16> -> tensor<10xf32> loc(#loc32)
    %72 = cirh.L2Norm %71 {dims = dense<0> : tensor<1xi64>, keepdim = false} : (tensor<10xf32>) -> tensor<f32> loc(#loc33)
    %73 = cirh.Mul %72, %72 : tensor<f32> loc(#loc34)
    %74 = cirh.MatMul %67, %58 {cs.internal = {}, transpose_a = true, transpose_b = false} : (tensor<64x10xf16>, tensor<64x128xf16>) -> tensor<10x128xf16> loc(#loc35)
    %75 = cirh.Cast %74 {Truncate = false} : tensor<10x128xf16> -> tensor<10x128xf32> loc(#loc32)
    %76 = cirh.L2Norm %75 {dims = dense<[0, 1]> : tensor<2xi64>, keepdim = false} : (tensor<10x128xf32>) -> tensor<f32> loc(#loc33)
    %77 = cirh.Mul %76, %76 : tensor<f32> loc(#loc34)
    %78 = cirh.MatMul %67, %24 {cs.internal = {}, transpose_a = false, transpose_b = false} : (tensor<64x10xf16>, tensor<10x128xf16>) -> tensor<64x128xf16> loc(#loc35)
    %79 = cirh.Mul %78, %57 : tensor<64x128xf16> loc(#loc36)
    %80 = cirh.Compare %53, %cst_29 {comparison_direction = "GT"} : tensor<64x128xf16> -> tensor<64x128xi1> loc(#loc7)
    %81 = cirh.Select %80, %79, %cst_29 : (tensor<64x128xi1>, tensor<64x128xf16>, tensor<64x128xf16>) -> tensor<64x128xf16> loc(#loc7)
    %82 = cirh.Reduce %81 {dimensions = dense<0> : tensor<1xi64>, keep_dims = dense<> : tensor<0xi64>, reduce_kind = "ADD"} : (tensor<64x128xf16>) -> tensor<128xf16> loc(#loc37)
    %83 = cirh.BroadcastInDim %82 {broadcast_dimensions = dense<1> : tensor<1xi64>} : (tensor<128xf16>) -> tensor<1x128xf16> loc(#loc37)
    %84 = cirh.Reshape %83 : (tensor<1x128xf16>) -> tensor<128xf16> loc(#loc38)
    %85 = cirh.Cast %84 {Truncate = false} : tensor<128xf16> -> tensor<128xf32> loc(#loc39)
    %86 = cirh.L2Norm %85 {dims = dense<0> : tensor<1xi64>, keepdim = false} : (tensor<128xf32>) -> tensor<f32> loc(#loc33)
    %87 = cirh.Mul %86, %86 : tensor<f32> loc(#loc34)
    %88 = cirh.MatMul %81, %48 {cs.internal = {}, transpose_a = true, transpose_b = false} : (tensor<64x128xf16>, tensor<64x128xf16>) -> tensor<128x128xf16> loc(#loc40)
    %89 = cirh.Cast %88 {Truncate = false} : tensor<128x128xf16> -> tensor<128x128xf32> loc(#loc39)
    %90 = cirh.L2Norm %89 {dims = dense<[0, 1]> : tensor<2xi64>, keepdim = false} : (tensor<128x128xf32>) -> tensor<f32> loc(#loc33)
    %91 = cirh.Mul %90, %90 : tensor<f32> loc(#loc34)
    %92 = cirh.MatMul %81, %25 {cs.internal = {}, transpose_a = false, transpose_b = false} : (tensor<64x128xf16>, tensor<128x128xf16>) -> tensor<64x128xf16> loc(#loc40)
    %93 = cirh.Mul %92, %47 : tensor<64x128xf16> loc(#loc41)
    %94 = cirh.Compare %43, %cst_29 {comparison_direction = "GT"} : tensor<64x128xf16> -> tensor<64x128xi1> loc(#loc42)
    %95 = cirh.Select %94, %93, %cst_29 : (tensor<64x128xi1>, tensor<64x128xf16>, tensor<64x128xf16>) -> tensor<64x128xf16> loc(#loc42)
    %96 = cirh.Reduce %95 {dimensions = dense<0> : tensor<1xi64>, keep_dims = dense<> : tensor<0xi64>, reduce_kind = "ADD"} : (tensor<64x128xf16>) -> tensor<128xf16> loc(#loc43)
    %97 = cirh.BroadcastInDim %96 {broadcast_dimensions = dense<1> : tensor<1xi64>} : (tensor<128xf16>) -> tensor<1x128xf16> loc(#loc43)
    %98 = cirh.Reshape %97 : (tensor<1x128xf16>) -> tensor<128xf16> loc(#loc44)
    %99 = cirh.Cast %98 {Truncate = false} : tensor<128xf16> -> tensor<128xf32> loc(#loc45)
    %100 = cirh.L2Norm %99 {dims = dense<0> : tensor<1xi64>, keepdim = false} : (tensor<128xf32>) -> tensor<f32> loc(#loc33)
    %101 = cirh.Mul %100, %100 : tensor<f32> loc(#loc34)
    %102 = cirh.MatMul %95, %38 {cs.internal = {}, transpose_a = true, transpose_b = false} : (tensor<64x128xf16>, tensor<64x128xf16>) -> tensor<128x128xf16> loc(#loc46)
    %103 = cirh.Cast %102 {Truncate = false} : tensor<128x128xf16> -> tensor<128x128xf32> loc(#loc45)
    %104 = cirh.L2Norm %103 {dims = dense<[0, 1]> : tensor<2xi64>, keepdim = false} : (tensor<128x128xf32>) -> tensor<f32> loc(#loc33)
    %105 = cirh.Mul %104, %104 : tensor<f32> loc(#loc34)
    %106 = cirh.MatMul %95, %26 {cs.internal = {}, transpose_a = false, transpose_b = false} : (tensor<64x128xf16>, tensor<128x128xf16>) -> tensor<64x128xf16> loc(#loc46)
    %107 = cirh.Mul %106, %37 : tensor<64x128xf16> loc(#loc47)
    %108 = cirh.Compare %33, %cst_29 {comparison_direction = "GT"} : tensor<64x128xf16> -> tensor<64x128xi1> loc(#loc48)
    %109 = cirh.Select %108, %107, %cst_29 : (tensor<64x128xi1>, tensor<64x128xf16>, tensor<64x128xf16>) -> tensor<64x128xf16> loc(#loc48)
    %110 = cirh.Reduce %109 {dimensions = dense<0> : tensor<1xi64>, keep_dims = dense<> : tensor<0xi64>, reduce_kind = "ADD"} : (tensor<64x128xf16>) -> tensor<128xf16> loc(#loc49)
    %111 = cirh.BroadcastInDim %110 {broadcast_dimensions = dense<1> : tensor<1xi64>} : (tensor<128xf16>) -> tensor<1x128xf16> loc(#loc49)
    %112 = cirh.Reshape %111 : (tensor<1x128xf16>) -> tensor<128xf16> loc(#loc50)
    %113 = cirh.Cast %112 {Truncate = false} : tensor<128xf16> -> tensor<128xf32> loc(#loc51)
    %114 = cirh.L2Norm %113 {dims = dense<0> : tensor<1xi64>, keepdim = false} : (tensor<128xf32>) -> tensor<f32> loc(#loc33)
    %115 = cirh.Mul %114, %114 : tensor<f32> loc(#loc34)
    %116 = cirh.MatMul %109, %28 {cs.internal = {}, transpose_a = true, transpose_b = false} : (tensor<64x128xf16>, tensor<64x784xf16>) -> tensor<128x784xf16> loc(#loc52)
    %117 = cirh.Cast %116 {Truncate = false} : tensor<128x784xf16> -> tensor<128x784xf32> loc(#loc51)
    %118 = cirh.L2Norm %117 {dims = dense<[0, 1]> : tensor<2xi64>, keepdim = false} : (tensor<128x784xf32>) -> tensor<f32> loc(#loc33)
    %119 = cirh.Mul %118, %118 : tensor<f32> loc(#loc34)
    %120 = cirh.Add %119, %115 : tensor<f32> loc(#loc53)
    %121 = cirh.Add %120, %105 : tensor<f32> loc(#loc53)
    %122 = cirh.Add %121, %101 : tensor<f32> loc(#loc53)
    %123 = cirh.Add %122, %91 : tensor<f32> loc(#loc53)
    %124 = cirh.Add %123, %87 : tensor<f32> loc(#loc53)
    %125 = cirh.Add %124, %77 : tensor<f32> loc(#loc53)
    %126 = cirh.Add %125, %73 : tensor<f32> loc(#loc53)
    %127 = cirh.Sqrt %126 : tensor<f32> loc(#loc54)
    %128 = cirh.Sqrt %120 : tensor<f32> loc(#loc55)
    %129 = cirh.Add %105, %101 : tensor<f32> loc(#loc56)
    %130 = cirh.Sqrt %129 : tensor<f32> loc(#loc55)
    %131 = cirh.Add %91, %87 : tensor<f32> loc(#loc56)
    %132 = cirh.Sqrt %131 : tensor<f32> loc(#loc55)
    %133 = cirh.Mul %arg10, %cst_28 : tensor<128x784xf32> loc(#loc6)
    %134 = cirh.Mul %117, %cst_27 : tensor<128x784xf32> loc(#loc5)
    %135 = cirh.Add %133, %134 : tensor<128x784xf32> loc(#loc5)
    %136 = cirh.Mul %arg11, %cst_26 : tensor<128x784xf32> loc(#loc4)
    %137 = cirh.Mul %117, %117 : tensor<128x784xf32> loc(#loc3)
    %138 = cirh.Mul %137, %cst_25 : tensor<128x784xf32> loc(#loc3)
    %139 = cirh.Add %136, %138 : tensor<128x784xf32> loc(#loc3)
    %140 = cirh.Mul %arg12, %cst_37 : tensor<f32> loc(#loc57)
    %141 = cirh.Mul %arg13, %cst_36 : tensor<f32> loc(#loc58)
    %142 = cirh.Sub %cst_34, %arg12 : tensor<f32> loc(#loc59)
    %143 = cirh.Sub %cst_34, %arg13 : tensor<f32> loc(#loc60)
    %144 = cirh.Sqrt %143 : tensor<f32> loc(#loc61)
    %145 = cirh.Div %144, %142 : tensor<f32> loc(#loc62)
    %146 = cirh.Sqrt %139 : tensor<128x784xf32> loc(#loc63)
    %147 = cirh.Add %146, %cst_24 : tensor<128x784xf32> loc(#loc2)
    %148 = cirh.Div %135, %147 : tensor<128x784xf32> loc(#loc64)
    %149 = cirh.BroadcastInDim %145 {broadcast_dimensions = dense<> : tensor<0xi64>} : (tensor<f32>) -> tensor<128x784xf32> loc(#loc65)
    %150 = cirh.Mul %148, %149 : tensor<128x784xf32> loc(#loc65)
    %151 = cirh.Mul %150, %cst_23 : tensor<128x784xf32> loc(#loc1)
    %152 = cirh.Sub %arg7, %151 : tensor<128x784xf32> loc(#loc66)
    %153 = cirh.Mul %arg14, %cst_22 : tensor<128x128xf32> loc(#loc6)
    %154 = cirh.Mul %103, %cst_21 : tensor<128x128xf32> loc(#loc5)
    %155 = cirh.Add %153, %154 : tensor<128x128xf32> loc(#loc5)
    %156 = cirh.Mul %arg15, %cst_20 : tensor<128x128xf32> loc(#loc4)
    %157 = cirh.Mul %103, %103 : tensor<128x128xf32> loc(#loc3)
    %158 = cirh.Mul %157, %cst_19 : tensor<128x128xf32> loc(#loc3)
    %159 = cirh.Add %156, %158 : tensor<128x128xf32> loc(#loc3)
    %160 = cirh.Mul %arg16, %cst_37 : tensor<f32> loc(#loc57)
    %161 = cirh.Mul %arg17, %cst_36 : tensor<f32> loc(#loc58)
    %162 = cirh.Sub %cst_34, %arg16 : tensor<f32> loc(#loc59)
    %163 = cirh.Sub %cst_34, %arg17 : tensor<f32> loc(#loc60)
    %164 = cirh.Sqrt %163 : tensor<f32> loc(#loc61)
    %165 = cirh.Div %164, %162 : tensor<f32> loc(#loc62)
    %166 = cirh.Sqrt %159 : tensor<128x128xf32> loc(#loc63)
    %167 = cirh.Add %166, %cst_18 : tensor<128x128xf32> loc(#loc2)
    %168 = cirh.Div %155, %167 : tensor<128x128xf32> loc(#loc64)
    %169 = cirh.BroadcastInDim %165 {broadcast_dimensions = dense<> : tensor<0xi64>} : (tensor<f32>) -> tensor<128x128xf32> loc(#loc65)
    %170 = cirh.Mul %168, %169 : tensor<128x128xf32> loc(#loc65)
    %171 = cirh.Mul %170, %cst_17 : tensor<128x128xf32> loc(#loc1)
    %172 = cirh.Sub %arg5, %171 : tensor<128x128xf32> loc(#loc66)
    %173 = cirh.Mul %arg18, %cst_22 : tensor<128x128xf32> loc(#loc6)
    %174 = cirh.Mul %89, %cst_21 : tensor<128x128xf32> loc(#loc5)
    %175 = cirh.Add %173, %174 : tensor<128x128xf32> loc(#loc5)
    %176 = cirh.Mul %arg19, %cst_20 : tensor<128x128xf32> loc(#loc4)
    %177 = cirh.Mul %89, %89 : tensor<128x128xf32> loc(#loc3)
    %178 = cirh.Mul %177, %cst_19 : tensor<128x128xf32> loc(#loc3)
    %179 = cirh.Add %176, %178 : tensor<128x128xf32> loc(#loc3)
    %180 = cirh.Mul %arg20, %cst_37 : tensor<f32> loc(#loc57)
    %181 = cirh.Mul %arg21, %cst_36 : tensor<f32> loc(#loc58)
    %182 = cirh.Sub %cst_34, %arg20 : tensor<f32> loc(#loc59)
    %183 = cirh.Sub %cst_34, %arg21 : tensor<f32> loc(#loc60)
    %184 = cirh.Sqrt %183 : tensor<f32> loc(#loc61)
    %185 = cirh.Div %184, %182 : tensor<f32> loc(#loc62)
    %186 = cirh.Sqrt %179 : tensor<128x128xf32> loc(#loc63)
    %187 = cirh.Add %186, %cst_18 : tensor<128x128xf32> loc(#loc2)
    %188 = cirh.Div %175, %187 : tensor<128x128xf32> loc(#loc64)
    %189 = cirh.BroadcastInDim %185 {broadcast_dimensions = dense<> : tensor<0xi64>} : (tensor<f32>) -> tensor<128x128xf32> loc(#loc65)
    %190 = cirh.Mul %188, %189 : tensor<128x128xf32> loc(#loc65)
    %191 = cirh.Mul %190, %cst_17 : tensor<128x128xf32> loc(#loc1)
    %192 = cirh.Sub %arg3, %191 : tensor<128x128xf32> loc(#loc66)
    %193 = cirh.Mul %arg22, %cst_16 : tensor<10x128xf32> loc(#loc6)
    %194 = cirh.Mul %75, %cst_15 : tensor<10x128xf32> loc(#loc5)
    %195 = cirh.Add %193, %194 : tensor<10x128xf32> loc(#loc5)
    %196 = cirh.Mul %arg23, %cst_14 : tensor<10x128xf32> loc(#loc4)
    %197 = cirh.Mul %75, %75 : tensor<10x128xf32> loc(#loc3)
    %198 = cirh.Mul %197, %cst_13 : tensor<10x128xf32> loc(#loc3)
    %199 = cirh.Add %196, %198 : tensor<10x128xf32> loc(#loc3)
    %200 = cirh.Mul %arg24, %cst_37 : tensor<f32> loc(#loc57)
    %201 = cirh.Mul %arg25, %cst_36 : tensor<f32> loc(#loc58)
    %202 = cirh.Sub %cst_34, %arg24 : tensor<f32> loc(#loc59)
    %203 = cirh.Sub %cst_34, %arg25 : tensor<f32> loc(#loc60)
    %204 = cirh.Sqrt %203 : tensor<f32> loc(#loc61)
    %205 = cirh.Div %204, %202 : tensor<f32> loc(#loc62)
    %206 = cirh.Sqrt %199 : tensor<10x128xf32> loc(#loc63)
    %207 = cirh.Add %206, %cst_12 : tensor<10x128xf32> loc(#loc2)
    %208 = cirh.Div %195, %207 : tensor<10x128xf32> loc(#loc64)
    %209 = cirh.BroadcastInDim %205 {broadcast_dimensions = dense<> : tensor<0xi64>} : (tensor<f32>) -> tensor<10x128xf32> loc(#loc65)
    %210 = cirh.Mul %208, %209 : tensor<10x128xf32> loc(#loc65)
    %211 = cirh.Mul %210, %cst_11 : tensor<10x128xf32> loc(#loc1)
    %212 = cirh.Sub %arg1, %211 : tensor<10x128xf32> loc(#loc66)
    %213 = cirh.Mul %arg26, %cst_10 : tensor<128xf32> loc(#loc6)
    %214 = cirh.Mul %113, %cst_9 : tensor<128xf32> loc(#loc5)
    %215 = cirh.Add %213, %214 : tensor<128xf32> loc(#loc5)
    %216 = cirh.Mul %arg27, %cst_8 : tensor<128xf32> loc(#loc4)
    %217 = cirh.Mul %113, %113 : tensor<128xf32> loc(#loc3)
    %218 = cirh.Mul %217, %cst_7 : tensor<128xf32> loc(#loc3)
    %219 = cirh.Add %216, %218 : tensor<128xf32> loc(#loc3)
    %220 = cirh.Mul %arg28, %cst_37 : tensor<f32> loc(#loc57)
    %221 = cirh.Mul %arg29, %cst_36 : tensor<f32> loc(#loc58)
    %222 = cirh.Sub %cst_34, %arg28 : tensor<f32> loc(#loc59)
    %223 = cirh.Sub %cst_34, %arg29 : tensor<f32> loc(#loc60)
    %224 = cirh.Sqrt %223 : tensor<f32> loc(#loc61)
    %225 = cirh.Div %224, %222 : tensor<f32> loc(#loc62)
    %226 = cirh.Sqrt %219 : tensor<128xf32> loc(#loc63)
    %227 = cirh.Add %226, %cst_6 : tensor<128xf32> loc(#loc2)
    %228 = cirh.Div %215, %227 : tensor<128xf32> loc(#loc64)
    %229 = cirh.BroadcastInDim %225 {broadcast_dimensions = dense<> : tensor<0xi64>} : (tensor<f32>) -> tensor<128xf32> loc(#loc65)
    %230 = cirh.Mul %228, %229 : tensor<128xf32> loc(#loc65)
    %231 = cirh.Mul %230, %cst_5 : tensor<128xf32> loc(#loc1)
    %232 = cirh.Sub %arg6, %231 : tensor<128xf32> loc(#loc66)
    %233 = cirh.Mul %arg30, %cst_10 : tensor<128xf32> loc(#loc6)
    %234 = cirh.Mul %99, %cst_9 : tensor<128xf32> loc(#loc5)
    %235 = cirh.Add %233, %234 : tensor<128xf32> loc(#loc5)
    %236 = cirh.Mul %arg31, %cst_8 : tensor<128xf32> loc(#loc4)
    %237 = cirh.Mul %99, %99 : tensor<128xf32> loc(#loc3)
    %238 = cirh.Mul %237, %cst_7 : tensor<128xf32> loc(#loc3)
    %239 = cirh.Add %236, %238 : tensor<128xf32> loc(#loc3)
    %240 = cirh.Mul %arg32, %cst_37 : tensor<f32> loc(#loc57)
    %241 = cirh.Mul %arg33, %cst_36 : tensor<f32> loc(#loc58)
    %242 = cirh.Sub %cst_34, %arg32 : tensor<f32> loc(#loc59)
    %243 = cirh.Sub %cst_34, %arg33 : tensor<f32> loc(#loc60)
    %244 = cirh.Sqrt %243 : tensor<f32> loc(#loc61)
    %245 = cirh.Div %244, %242 : tensor<f32> loc(#loc62)
    %246 = cirh.Sqrt %239 : tensor<128xf32> loc(#loc63)
    %247 = cirh.Add %246, %cst_6 : tensor<128xf32> loc(#loc2)
    %248 = cirh.Div %235, %247 : tensor<128xf32> loc(#loc64)
    %249 = cirh.BroadcastInDim %245 {broadcast_dimensions = dense<> : tensor<0xi64>} : (tensor<f32>) -> tensor<128xf32> loc(#loc65)
    %250 = cirh.Mul %248, %249 : tensor<128xf32> loc(#loc65)
    %251 = cirh.Mul %250, %cst_5 : tensor<128xf32> loc(#loc1)
    %252 = cirh.Sub %arg4, %251 : tensor<128xf32> loc(#loc66)
    %253 = cirh.Mul %arg34, %cst_10 : tensor<128xf32> loc(#loc6)
    %254 = cirh.Mul %85, %cst_9 : tensor<128xf32> loc(#loc5)
    %255 = cirh.Add %253, %254 : tensor<128xf32> loc(#loc5)
    %256 = cirh.Mul %arg35, %cst_8 : tensor<128xf32> loc(#loc4)
    %257 = cirh.Mul %85, %85 : tensor<128xf32> loc(#loc3)
    %258 = cirh.Mul %257, %cst_7 : tensor<128xf32> loc(#loc3)
    %259 = cirh.Add %256, %258 : tensor<128xf32> loc(#loc3)
    %260 = cirh.Mul %arg36, %cst_37 : tensor<f32> loc(#loc57)
    %261 = cirh.Mul %arg37, %cst_36 : tensor<f32> loc(#loc58)
    %262 = cirh.Sub %cst_34, %arg36 : tensor<f32> loc(#loc59)
    %263 = cirh.Sub %cst_34, %arg37 : tensor<f32> loc(#loc60)
    %264 = cirh.Sqrt %263 : tensor<f32> loc(#loc61)
    %265 = cirh.Div %264, %262 : tensor<f32> loc(#loc62)
    %266 = cirh.Sqrt %259 : tensor<128xf32> loc(#loc63)
    %267 = cirh.Add %266, %cst_6 : tensor<128xf32> loc(#loc2)
    %268 = cirh.Div %255, %267 : tensor<128xf32> loc(#loc64)
    %269 = cirh.BroadcastInDim %265 {broadcast_dimensions = dense<> : tensor<0xi64>} : (tensor<f32>) -> tensor<128xf32> loc(#loc65)
    %270 = cirh.Mul %268, %269 : tensor<128xf32> loc(#loc65)
    %271 = cirh.Mul %270, %cst_5 : tensor<128xf32> loc(#loc1)
    %272 = cirh.Sub %arg2, %271 : tensor<128xf32> loc(#loc66)
    %273 = cirh.Mul %arg38, %cst_4 : tensor<10xf32> loc(#loc6)
    %274 = cirh.Mul %71, %cst_3 : tensor<10xf32> loc(#loc5)
    %275 = cirh.Add %273, %274 : tensor<10xf32> loc(#loc5)
    %276 = cirh.Mul %arg39, %cst_2 : tensor<10xf32> loc(#loc4)
    %277 = cirh.Mul %71, %71 : tensor<10xf32> loc(#loc3)
    %278 = cirh.Mul %277, %cst_1 : tensor<10xf32> loc(#loc3)
    %279 = cirh.Add %276, %278 : tensor<10xf32> loc(#loc3)
    %280 = cirh.Mul %arg40, %cst_37 : tensor<f32> loc(#loc57)
    %281 = cirh.Mul %arg41, %cst_36 : tensor<f32> loc(#loc58)
    %282 = cirh.Sub %cst_34, %arg40 : tensor<f32> loc(#loc59)
    %283 = cirh.Sub %cst_34, %arg41 : tensor<f32> loc(#loc60)
    %284 = cirh.Sqrt %283 : tensor<f32> loc(#loc61)
    %285 = cirh.Div %284, %282 : tensor<f32> loc(#loc62)
    %286 = cirh.Sqrt %279 : tensor<10xf32> loc(#loc63)
    %287 = cirh.Add %286, %cst_0 : tensor<10xf32> loc(#loc2)
    %288 = cirh.Div %275, %287 : tensor<10xf32> loc(#loc64)
    %289 = cirh.BroadcastInDim %285 {broadcast_dimensions = dense<> : tensor<0xi64>} : (tensor<f32>) -> tensor<10xf32> loc(#loc65)
    %290 = cirh.Mul %288, %289 : tensor<10xf32> loc(#loc65)
    %291 = cirh.Mul %290, %cst : tensor<10xf32> loc(#loc1)
    %292 = cirh.Sub %arg0, %291 : tensor<10xf32> loc(#loc66)
    %293 = cirh.Add %arg42, %cst_38 : tensor<i64> loc(#loc67)
    return %23, %127, %128, %130, %132, %135, %139, %140, %141, %152, %155, %159, %160, %161, %172, %175, %179, %180, %181, %192, %195, %199, %200, %201, %212, %215, %219, %220, %221, %232, %235, %239, %240, %241, %252, %255, %259, %260, %261, %272, %275, %279, %280, %281, %292, %cst_35, %293, %cst_35, %65 : tensor<f32>, tensor<f32>, tensor<f32>, tensor<f32>, tensor<f32>, tensor<128x784xf32>, tensor<128x784xf32>, tensor<f32>, tensor<f32>, tensor<128x784xf32>, tensor<128x128xf32>, tensor<128x128xf32>, tensor<f32>, tensor<f32>, tensor<128x128xf32>, tensor<128x128xf32>, tensor<128x128xf32>, tensor<f32>, tensor<f32>, tensor<128x128xf32>, tensor<10x128xf32>, tensor<10x128xf32>, tensor<f32>, tensor<f32>, tensor<10x128xf32>, tensor<128xf32>, tensor<128xf32>, tensor<f32>, tensor<f32>, tensor<128xf32>, tensor<128xf32>, tensor<128xf32>, tensor<f32>, tensor<f32>, tensor<128xf32>, tensor<128xf32>, tensor<128xf32>, tensor<f32>, tensor<f32>, tensor<128xf32>, tensor<10xf32>, tensor<10xf32>, tensor<f32>, tensor<f32>, tensor<10xf32>, tensor<f32>, tensor<i64>, tensor<f32>, tensor<f32> loc(#loc0)
  } loc(#loc0)
} loc(#loc0)
#loc1 = loc("grad_scaler.step/aten::mul"(callsite("wrapper"("cerebras/pytorch/amp/wrap.py":146:0) at callsite("__torch_function__"("cerebras/pytorch/core/function_mode.py":116:0) at callsite("wrapper"("cerebras/pytorch/amp/wrap.py":89:0) at callsite("step"("cerebras/pytorch/optim/AdamBase.py":145:0) at callsite("decorate_context"("torch/utils/_contextlib.py":115:0) at callsite("wrapper"("torch/optim/optimizer.py":391:0) at callsite("wrapper"("cerebras/pytorch/optim/scheduler.py":99:0) at callsite("step_if_finite"("cerebras/pytorch/amp/grad_scaler.py":340:0) at callsite("step"("cerebras/pytorch/amp/grad_scaler.py":423:0) at callsite("optimizer_step"("cerebras/modelzoo/trainer/callbacks/precision.py":241:0) at callsite("optimizer_step"("cerebras/modelzoo/trainer/trainer.py":620:0) at callsite("training_step"("cerebras/modelzoo/trainer/trainer.py":559:0) at callsite("generated_trace_fn"("cerebras/pytorch/core/compile.py":190:0) at callsite("_run_train"("cerebras/modelzoo/trainer/trainer.py":769:0) at callsite("fit"("cerebras/modelzoo/trainer/trainer.py":723:0) at callsite("run_trainer"("cerebras/modelzoo/trainer/utils.py":178:0) at callsite("run_with_params"("cerebras/modelzoo/common/run_utils.py":182:0) at callsite("main"("cerebras/modelzoo/common/run_utils.py":115:0) at callsite("main"("run.py":35:0) at "<module>"("run.py":39:0))))))))))))))))))))))
#loc2 = loc("grad_scaler.step/aten::add"(callsite("wrapper"("cerebras/pytorch/amp/wrap.py":146:0) at callsite("__torch_function__"("cerebras/pytorch/core/function_mode.py":116:0) at callsite("wrapper"("cerebras/pytorch/amp/wrap.py":146:0) at callsite("step"("cerebras/pytorch/optim/AdamBase.py":123:0) at callsite("decorate_context"("torch/utils/_contextlib.py":115:0) at callsite("wrapper"("torch/optim/optimizer.py":391:0) at callsite("wrapper"("cerebras/pytorch/optim/scheduler.py":99:0) at callsite("step_if_finite"("cerebras/pytorch/amp/grad_scaler.py":340:0) at callsite("step"("cerebras/pytorch/amp/grad_scaler.py":423:0) at callsite("optimizer_step"("cerebras/modelzoo/trainer/callbacks/precision.py":241:0) at callsite("optimizer_step"("cerebras/modelzoo/trainer/trainer.py":620:0) at callsite("training_step"("cerebras/modelzoo/trainer/trainer.py":559:0) at callsite("generated_trace_fn"("cerebras/pytorch/core/compile.py":190:0) at callsite("_run_train"("cerebras/modelzoo/trainer/trainer.py":769:0) at callsite("fit"("cerebras/modelzoo/trainer/trainer.py":723:0) at callsite("run_trainer"("cerebras/modelzoo/trainer/utils.py":178:0) at callsite("run_with_params"("cerebras/modelzoo/common/run_utils.py":182:0) at callsite("main"("cerebras/modelzoo/common/run_utils.py":115:0) at callsite("main"("run.py":35:0) at "<module>"("run.py":39:0))))))))))))))))))))))
#loc3 = loc("grad_scaler.step/aten::addcmul"(callsite("wrapper"("cerebras/pytorch/amp/wrap.py":146:0) at callsite("__torch_function__"("cerebras/pytorch/core/function_mode.py":116:0) at callsite("wrapper"("cerebras/pytorch/amp/wrap.py":146:0) at callsite("step"("cerebras/pytorch/optim/AdamBase.py":113:0) at callsite("decorate_context"("torch/utils/_contextlib.py":115:0) at callsite("wrapper"("torch/optim/optimizer.py":391:0) at callsite("wrapper"("cerebras/pytorch/optim/scheduler.py":99:0) at callsite("step_if_finite"("cerebras/pytorch/amp/grad_scaler.py":340:0) at callsite("step"("cerebras/pytorch/amp/grad_scaler.py":423:0) at callsite("optimizer_step"("cerebras/modelzoo/trainer/callbacks/precision.py":241:0) at callsite("optimizer_step"("cerebras/modelzoo/trainer/trainer.py":620:0) at callsite("training_step"("cerebras/modelzoo/trainer/trainer.py":559:0) at callsite("generated_trace_fn"("cerebras/pytorch/core/compile.py":190:0) at callsite("_run_train"("cerebras/modelzoo/trainer/trainer.py":769:0) at callsite("fit"("cerebras/modelzoo/trainer/trainer.py":723:0) at callsite("run_trainer"("cerebras/modelzoo/trainer/utils.py":178:0) at callsite("run_with_params"("cerebras/modelzoo/common/run_utils.py":182:0) at callsite("main"("cerebras/modelzoo/common/run_utils.py":115:0) at callsite("main"("run.py":35:0) at "<module>"("run.py":39:0))))))))))))))))))))))
#loc4 = loc("grad_scaler.step/aten::mul"(callsite("wrapper"("cerebras/pytorch/amp/wrap.py":146:0) at callsite("__torch_function__"("cerebras/pytorch/core/function_mode.py":116:0) at callsite("wrapper"("cerebras/pytorch/amp/wrap.py":146:0) at callsite("step"("cerebras/pytorch/optim/AdamBase.py":113:0) at callsite("decorate_context"("torch/utils/_contextlib.py":115:0) at callsite("wrapper"("torch/optim/optimizer.py":391:0) at callsite("wrapper"("cerebras/pytorch/optim/scheduler.py":99:0) at callsite("step_if_finite"("cerebras/pytorch/amp/grad_scaler.py":340:0) at callsite("step"("cerebras/pytorch/amp/grad_scaler.py":423:0) at callsite("optimizer_step"("cerebras/modelzoo/trainer/callbacks/precision.py":241:0) at callsite("optimizer_step"("cerebras/modelzoo/trainer/trainer.py":620:0) at callsite("training_step"("cerebras/modelzoo/trainer/trainer.py":559:0) at callsite("generated_trace_fn"("cerebras/pytorch/core/compile.py":190:0) at callsite("_run_train"("cerebras/modelzoo/trainer/trainer.py":769:0) at callsite("fit"("cerebras/modelzoo/trainer/trainer.py":723:0) at callsite("run_trainer"("cerebras/modelzoo/trainer/utils.py":178:0) at callsite("run_with_params"("cerebras/modelzoo/common/run_utils.py":182:0) at callsite("main"("cerebras/modelzoo/common/run_utils.py":115:0) at callsite("main"("run.py":35:0) at "<module>"("run.py":39:0))))))))))))))))))))))
#loc5 = loc("grad_scaler.step/aten::add"(callsite("wrapper"("cerebras/pytorch/amp/wrap.py":146:0) at callsite("__torch_function__"("cerebras/pytorch/core/function_mode.py":116:0) at callsite("wrapper"("cerebras/pytorch/amp/wrap.py":146:0) at callsite("step"("cerebras/pytorch/optim/AdamBase.py":112:0) at callsite("decorate_context"("torch/utils/_contextlib.py":115:0) at callsite("wrapper"("torch/optim/optimizer.py":391:0) at callsite("wrapper"("cerebras/pytorch/optim/scheduler.py":99:0) at callsite("step_if_finite"("cerebras/pytorch/amp/grad_scaler.py":340:0) at callsite("step"("cerebras/pytorch/amp/grad_scaler.py":423:0) at callsite("optimizer_step"("cerebras/modelzoo/trainer/callbacks/precision.py":241:0) at callsite("optimizer_step"("cerebras/modelzoo/trainer/trainer.py":620:0) at callsite("training_step"("cerebras/modelzoo/trainer/trainer.py":559:0) at callsite("generated_trace_fn"("cerebras/pytorch/core/compile.py":190:0) at callsite("_run_train"("cerebras/modelzoo/trainer/trainer.py":769:0) at callsite("fit"("cerebras/modelzoo/trainer/trainer.py":723:0) at callsite("run_trainer"("cerebras/modelzoo/trainer/utils.py":178:0) at callsite("run_with_params"("cerebras/modelzoo/common/run_utils.py":182:0) at callsite("main"("cerebras/modelzoo/common/run_utils.py":115:0) at callsite("main"("run.py":35:0) at "<module>"("run.py":39:0))))))))))))))))))))))
#loc6 = loc("grad_scaler.step/aten::mul"(callsite("wrapper"("cerebras/pytorch/amp/wrap.py":146:0) at callsite("__torch_function__"("cerebras/pytorch/core/function_mode.py":116:0) at callsite("wrapper"("cerebras/pytorch/amp/wrap.py":146:0) at callsite("step"("cerebras/pytorch/optim/AdamBase.py":112:0) at callsite("decorate_context"("torch/utils/_contextlib.py":115:0) at callsite("wrapper"("torch/optim/optimizer.py":391:0) at callsite("wrapper"("cerebras/pytorch/optim/scheduler.py":99:0) at callsite("step_if_finite"("cerebras/pytorch/amp/grad_scaler.py":340:0) at callsite("step"("cerebras/pytorch/amp/grad_scaler.py":423:0) at callsite("optimizer_step"("cerebras/modelzoo/trainer/callbacks/precision.py":241:0) at callsite("optimizer_step"("cerebras/modelzoo/trainer/trainer.py":620:0) at callsite("training_step"("cerebras/modelzoo/trainer/trainer.py":559:0) at callsite("generated_trace_fn"("cerebras/pytorch/core/compile.py":190:0) at callsite("_run_train"("cerebras/modelzoo/trainer/trainer.py":769:0) at callsite("fit"("cerebras/modelzoo/trainer/trainer.py":723:0) at callsite("run_trainer"("cerebras/modelzoo/trainer/utils.py":178:0) at callsite("run_with_params"("cerebras/modelzoo/common/run_utils.py":182:0) at callsite("main"("cerebras/modelzoo/common/run_utils.py":115:0) at callsite("main"("run.py":35:0) at "<module>"("run.py":39:0))))))))))))))))))))))
#loc7 = loc("model.nonlin.call2.bwd/aten::threshold_backward"(callsite("_engine_run_backward"("torch/autograd/graph.py":744:0) at callsite("backward"("torch/autograd/__init__.py":267:0) at callsite("backward"("torch/_tensor.py":525:0) at callsite("__torch_function__"("cerebras/pytorch/core/function_mode.py":116:0) at callsite("handle_torch_function"("torch/overrides.py":1619:0) at callsite("backward"("torch/_tensor.py":516:0) at callsite("backward"("cerebras/modelzoo/trainer/callbacks/precision.py":214:0) at callsite("backward"("cerebras/modelzoo/trainer/trainer.py":607:0) at callsite("training_step"("cerebras/modelzoo/trainer/trainer.py":554:0) at callsite("generated_trace_fn"("cerebras/pytorch/core/compile.py":190:0) at callsite("_run_train"("cerebras/modelzoo/trainer/trainer.py":769:0) at callsite("fit"("cerebras/modelzoo/trainer/trainer.py":723:0) at callsite("run_trainer"("cerebras/modelzoo/trainer/utils.py":178:0) at callsite("run_with_params"("cerebras/modelzoo/common/run_utils.py":182:0) at callsite("main"("cerebras/modelzoo/common/run_utils.py":115:0) at callsite("main"("run.py":35:0) at "<module>"("run.py":39:0)))))))))))))))))))
#loc8 = loc("model.dropout.fwd/aten::native_dropout"(callsite("dropout"("torch/nn/functional.py":1295:0) at callsite("wrapper"("cerebras/pytorch/amp/wrap.py":62:0) at callsite("__torch_function__"("cerebras/pytorch/core/function_mode.py":116:0) at callsite("handle_torch_function"("torch/overrides.py":1619:0) at callsite("dropout"("torch/nn/functional.py":1292:0) at callsite("wrapper"("cerebras/pytorch/amp/wrap.py":62:0) at callsite("forward"("torch/nn/modules/dropout.py":59:0) at callsite("_call_impl"("torch/nn/modules/module.py":1582:0) at callsite("_wrapped_call_impl"("torch/nn/modules/module.py":1532:0) at callsite("forward"("cerebras/modelzoo/fc_mnist/pytorch/model.py":58:0) at callsite("_call_impl"("torch/nn/modules/module.py":1582:0) at callsite("_wrapped_call_impl"("torch/nn/modules/module.py":1532:0) at callsite("forward"("cerebras/modelzoo/fc_mnist/pytorch/model.py":104:0) at callsite("_call_impl"("torch/nn/modules/module.py":1582:0) at callsite("_wrapped_call_impl"("torch/nn/modules/module.py":1532:0) at callsite("forward"("cerebras/pytorch/backend/ltc_backend.py":945:0) at callsite("compiled_forward"("cerebras/pytorch/core/compile.py":120:0) at callsite("forward"("cerebras/modelzoo/trainer/trainer.py":587:0) at callsite("training_step"("cerebras/modelzoo/trainer/trainer.py":553:0) at callsite("generated_trace_fn"("cerebras/pytorch/core/compile.py":190:0) at callsite("_run_train"("cerebras/modelzoo/trainer/trainer.py":769:0) at callsite("fit"("cerebras/modelzoo/trainer/trainer.py":723:0) at callsite("run_trainer"("cerebras/modelzoo/trainer/utils.py":178:0) at callsite("run_with_params"("cerebras/modelzoo/common/run_utils.py":182:0) at callsite("main"("cerebras/modelzoo/common/run_utils.py":115:0) at callsite("main"("run.py":35:0) at "<module>"("run.py":39:0)))))))))))))))))))))))))))))
#loc9 = loc("model.fc_layers.0.fwd/aten::addmm"(callsite("__torch_function__"("cerebras/pytorch/core/function_mode.py":116:0) at callsite("wrapper"("cerebras/pytorch/amp/wrap.py":62:0) at callsite("forward"("torch/nn/modules/linear.py":116:0) at callsite("_call_impl"("torch/nn/modules/module.py":1582:0) at callsite("_wrapped_call_impl"("torch/nn/modules/module.py":1532:0) at callsite("forward"("cerebras/modelzoo/fc_mnist/pytorch/model.py":55:0) at callsite("_call_impl"("torch/nn/modules/module.py":1582:0) at callsite("_wrapped_call_impl"("torch/nn/modules/module.py":1532:0) at callsite("forward"("cerebras/modelzoo/fc_mnist/pytorch/model.py":104:0) at callsite("_call_impl"("torch/nn/modules/module.py":1582:0) at callsite("_wrapped_call_impl"("torch/nn/modules/module.py":1532:0) at callsite("forward"("cerebras/pytorch/backend/ltc_backend.py":945:0) at callsite("compiled_forward"("cerebras/pytorch/core/compile.py":120:0) at callsite("forward"("cerebras/modelzoo/trainer/trainer.py":587:0) at callsite("training_step"("cerebras/modelzoo/trainer/trainer.py":553:0) at callsite("generated_trace_fn"("cerebras/pytorch/core/compile.py":190:0) at callsite("_run_train"("cerebras/modelzoo/trainer/trainer.py":769:0) at callsite("fit"("cerebras/modelzoo/trainer/trainer.py":723:0) at callsite("run_trainer"("cerebras/modelzoo/trainer/utils.py":178:0) at callsite("run_with_params"("cerebras/modelzoo/common/run_utils.py":182:0) at callsite("main"("cerebras/modelzoo/common/run_utils.py":115:0) at callsite("main"("run.py":35:0) at "<module>"("run.py":39:0)))))))))))))))))))))))))
#loc10 = loc("loss_fn.fwd/aten::nll_loss_forward"(callsite("nll_loss"("torch/nn/functional.py":2760:0) at callsite("wrapper"("cerebras/pytorch/amp/wrap.py":62:0) at callsite("__torch_function__"("cerebras/pytorch/core/function_mode.py":116:0) at callsite("handle_torch_function"("torch/overrides.py":1619:0) at callsite("nll_loss"("torch/nn/functional.py":2747:0) at callsite("wrapper"("cerebras/pytorch/amp/wrap.py":62:0) at callsite("forward"("torch/nn/modules/loss.py":216:0) at callsite("_call_impl"("torch/nn/modules/module.py":1582:0) at callsite("_wrapped_call_impl"("torch/nn/modules/module.py":1532:0) at callsite("forward"("cerebras/modelzoo/fc_mnist/pytorch/model.py":111:0) at callsite("_call_impl"("torch/nn/modules/module.py":1582:0) at callsite("_wrapped_call_impl"("torch/nn/modules/module.py":1532:0) at callsite("forward"("cerebras/pytorch/backend/ltc_backend.py":945:0) at callsite("compiled_forward"("cerebras/pytorch/core/compile.py":120:0) at callsite("forward"("cerebras/modelzoo/trainer/trainer.py":587:0) at callsite("training_step"("cerebras/modelzoo/trainer/trainer.py":553:0) at callsite("generated_trace_fn"("cerebras/pytorch/core/compile.py":190:0) at callsite("_run_train"("cerebras/modelzoo/trainer/trainer.py":769:0) at callsite("fit"("cerebras/modelzoo/trainer/trainer.py":723:0) at callsite("run_trainer"("cerebras/modelzoo/trainer/utils.py":178:0) at callsite("run_with_params"("cerebras/modelzoo/common/run_utils.py":182:0) at callsite("main"("cerebras/modelzoo/common/run_utils.py":115:0) at callsite("main"("run.py":35:0) at "<module>"("run.py":39:0))))))))))))))))))))))))))
#loc11 = loc("params_norm/aten::norm"(callsite("norm"("torch/functional.py":1641:0) at callsite("__torch_function__"("cerebras/pytorch/core/function_mode.py":116:0) at callsite("handle_torch_function"("torch/overrides.py":1619:0) at callsite("norm"("torch/functional.py":1595:0) at callsite("wrapper"("cerebras/pytorch/amp/wrap.py":62:0) at callsite("compute_param_norm"("cerebras/modelzoo/trainer/callbacks/norm.py":44:0) at callsite("on_before_backward"("cerebras/modelzoo/trainer/callbacks/norm.py":50:0) at callsite("call"("cerebras/modelzoo/trainer/trainer.py":369:0) at callsite("backward"("cerebras/modelzoo/trainer/trainer.py":602:0) at callsite("training_step"("cerebras/modelzoo/trainer/trainer.py":554:0) at callsite("generated_trace_fn"("cerebras/pytorch/core/compile.py":190:0) at callsite("_run_train"("cerebras/modelzoo/trainer/trainer.py":769:0) at callsite("fit"("cerebras/modelzoo/trainer/trainer.py":723:0) at callsite("run_trainer"("cerebras/modelzoo/trainer/utils.py":178:0) at callsite("run_with_params"("cerebras/modelzoo/common/run_utils.py":182:0) at callsite("main"("cerebras/modelzoo/common/run_utils.py":115:0) at callsite("main"("run.py":35:0) at "<module>"("run.py":39:0))))))))))))))))))))
#loc12 = loc("params_norm/aten::pow"(callsite("__torch_function__"("cerebras/pytorch/core/function_mode.py":116:0) at callsite("wrapper"("cerebras/pytorch/amp/wrap.py":62:0) at callsite("compute_param_norm"("cerebras/modelzoo/trainer/callbacks/norm.py":44:0) at callsite("on_before_backward"("cerebras/modelzoo/trainer/callbacks/norm.py":50:0) at callsite("call"("cerebras/modelzoo/trainer/trainer.py":369:0) at callsite("backward"("cerebras/modelzoo/trainer/trainer.py":602:0) at callsite("training_step"("cerebras/modelzoo/trainer/trainer.py":554:0) at callsite("generated_trace_fn"("cerebras/pytorch/core/compile.py":190:0) at callsite("_run_train"("cerebras/modelzoo/trainer/trainer.py":769:0) at callsite("fit"("cerebras/modelzoo/trainer/trainer.py":723:0) at callsite("run_trainer"("cerebras/modelzoo/trainer/utils.py":178:0) at callsite("run_with_params"("cerebras/modelzoo/common/run_utils.py":182:0) at callsite("main"("cerebras/modelzoo/common/run_utils.py":115:0) at callsite("main"("run.py":35:0) at "<module>"("run.py":39:0)))))))))))))))))
#loc13 = loc("params_norm/aten::add"(callsite("wrapper"("cerebras/pytorch/amp/wrap.py":156:0) at callsite("__torch_function__"("cerebras/pytorch/core/function_mode.py":116:0) at callsite("wrapper"("cerebras/pytorch/amp/wrap.py":94:0) at callsite("compute_param_norm"("cerebras/modelzoo/trainer/callbacks/norm.py":44:0) at callsite("on_before_backward"("cerebras/modelzoo/trainer/callbacks/norm.py":50:0) at callsite("call"("cerebras/modelzoo/trainer/trainer.py":369:0) at callsite("backward"("cerebras/modelzoo/trainer/trainer.py":602:0) at callsite("training_step"("cerebras/modelzoo/trainer/trainer.py":554:0) at callsite("generated_trace_fn"("cerebras/pytorch/core/compile.py":190:0) at callsite("_run_train"("cerebras/modelzoo/trainer/trainer.py":769:0) at callsite("fit"("cerebras/modelzoo/trainer/trainer.py":723:0) at callsite("run_trainer"("cerebras/modelzoo/trainer/utils.py":178:0) at callsite("run_with_params"("cerebras/modelzoo/common/run_utils.py":182:0) at callsite("main"("cerebras/modelzoo/common/run_utils.py":115:0) at callsite("main"("run.py":35:0) at "<module>"("run.py":39:0))))))))))))))))))
#loc14 = loc("params_norm/aten::sqrt"(callsite("__torch_function__"("cerebras/pytorch/core/function_mode.py":116:0) at callsite("compute_param_norm"("cerebras/modelzoo/trainer/callbacks/norm.py":46:0) at callsite("on_before_backward"("cerebras/modelzoo/trainer/callbacks/norm.py":50:0) at callsite("call"("cerebras/modelzoo/trainer/trainer.py":369:0) at callsite("backward"("cerebras/modelzoo/trainer/trainer.py":602:0) at callsite("training_step"("cerebras/modelzoo/trainer/trainer.py":554:0) at callsite("generated_trace_fn"("cerebras/pytorch/core/compile.py":190:0) at callsite("_run_train"("cerebras/modelzoo/trainer/trainer.py":769:0) at callsite("fit"("cerebras/modelzoo/trainer/trainer.py":723:0) at callsite("run_trainer"("cerebras/modelzoo/trainer/utils.py":178:0) at callsite("run_with_params"("cerebras/modelzoo/common/run_utils.py":182:0) at callsite("main"("cerebras/modelzoo/common/run_utils.py":115:0) at callsite("main"("run.py":35:0) at "<module>"("run.py":39:0))))))))))))))))
#loc15 = loc("model.last_layer.fwd/aten::_to_copy"(callsite("__torch_function__"("cerebras/pytorch/core/function_mode.py":116:0) at callsite("to"("cerebras/pytorch/nn/parameter.py":191:0) at callsite("maybe_half"("cerebras/pytorch/amp/utils.py":100:0) at callsite("cached_cast"("cerebras/pytorch/amp/utils.py":194:0) at callsite("wrapper"("cerebras/pytorch/amp/wrap.py":55:0) at callsite("forward"("torch/nn/modules/linear.py":116:0) at callsite("_call_impl"("torch/nn/modules/module.py":1582:0) at callsite("_wrapped_call_impl"("torch/nn/modules/module.py":1532:0) at callsite("forward"("cerebras/modelzoo/fc_mnist/pytorch/model.py":60:0) at callsite("_call_impl"("torch/nn/modules/module.py":1582:0) at callsite("_wrapped_call_impl"("torch/nn/modules/module.py":1532:0) at callsite("forward"("cerebras/modelzoo/fc_mnist/pytorch/model.py":104:0) at callsite("_call_impl"("torch/nn/modules/module.py":1582:0) at callsite("_wrapped_call_impl"("torch/nn/modules/module.py":1532:0) at callsite("forward"("cerebras/pytorch/backend/ltc_backend.py":945:0) at callsite("compiled_forward"("cerebras/pytorch/core/compile.py":120:0) at callsite("forward"("cerebras/modelzoo/trainer/trainer.py":587:0) at callsite("training_step"("cerebras/modelzoo/trainer/trainer.py":553:0) at callsite("generated_trace_fn"("cerebras/pytorch/core/compile.py":190:0) at callsite("_run_train"("cerebras/modelzoo/trainer/trainer.py":769:0) at callsite("fit"("cerebras/modelzoo/trainer/trainer.py":723:0) at callsite("run_trainer"("cerebras/modelzoo/trainer/utils.py":178:0) at callsite("run_with_params"("cerebras/modelzoo/common/run_utils.py":182:0) at callsite("main"("cerebras/modelzoo/common/run_utils.py":115:0) at callsite("main"("run.py":35:0) at "<module>"("run.py":39:0))))))))))))))))))))))))))))
#loc16 = loc("model.fc_layers.2.fwd/aten::_to_copy"(callsite("__torch_function__"("cerebras/pytorch/core/function_mode.py":116:0) at callsite("to"("cerebras/pytorch/nn/parameter.py":191:0) at callsite("maybe_half"("cerebras/pytorch/amp/utils.py":100:0) at callsite("cached_cast"("cerebras/pytorch/amp/utils.py":194:0) at callsite("wrapper"("cerebras/pytorch/amp/wrap.py":55:0) at callsite("forward"("torch/nn/modules/linear.py":116:0) at callsite("_call_impl"("torch/nn/modules/module.py":1582:0) at callsite("_wrapped_call_impl"("torch/nn/modules/module.py":1532:0) at callsite("forward"("cerebras/modelzoo/fc_mnist/pytorch/model.py":55:0) at callsite("_call_impl"("torch/nn/modules/module.py":1582:0) at callsite("_wrapped_call_impl"("torch/nn/modules/module.py":1532:0) at callsite("forward"("cerebras/modelzoo/fc_mnist/pytorch/model.py":104:0) at callsite("_call_impl"("torch/nn/modules/module.py":1582:0) at callsite("_wrapped_call_impl"("torch/nn/modules/module.py":1532:0) at callsite("forward"("cerebras/pytorch/backend/ltc_backend.py":945:0) at callsite("compiled_forward"("cerebras/pytorch/core/compile.py":120:0) at callsite("forward"("cerebras/modelzoo/trainer/trainer.py":587:0) at callsite("training_step"("cerebras/modelzoo/trainer/trainer.py":553:0) at callsite("generated_trace_fn"("cerebras/pytorch/core/compile.py":190:0) at callsite("_run_train"("cerebras/modelzoo/trainer/trainer.py":769:0) at callsite("fit"("cerebras/modelzoo/trainer/trainer.py":723:0) at callsite("run_trainer"("cerebras/modelzoo/trainer/utils.py":178:0) at callsite("run_with_params"("cerebras/modelzoo/common/run_utils.py":182:0) at callsite("main"("cerebras/modelzoo/common/run_utils.py":115:0) at callsite("main"("run.py":35:0) at "<module>"("run.py":39:0))))))))))))))))))))))))))))
#loc17 = loc("model.fc_layers.1.fwd/aten::_to_copy"(callsite("__torch_function__"("cerebras/pytorch/core/function_mode.py":116:0) at callsite("to"("cerebras/pytorch/nn/parameter.py":191:0) at callsite("maybe_half"("cerebras/pytorch/amp/utils.py":100:0) at callsite("cached_cast"("cerebras/pytorch/amp/utils.py":194:0) at callsite("wrapper"("cerebras/pytorch/amp/wrap.py":55:0) at callsite("forward"("torch/nn/modules/linear.py":116:0) at callsite("_call_impl"("torch/nn/modules/module.py":1582:0) at callsite("_wrapped_call_impl"("torch/nn/modules/module.py":1532:0) at callsite("forward"("cerebras/modelzoo/fc_mnist/pytorch/model.py":55:0) at callsite("_call_impl"("torch/nn/modules/module.py":1582:0) at callsite("_wrapped_call_impl"("torch/nn/modules/module.py":1532:0) at callsite("forward"("cerebras/modelzoo/fc_mnist/pytorch/model.py":104:0) at callsite("_call_impl"("torch/nn/modules/module.py":1582:0) at callsite("_wrapped_call_impl"("torch/nn/modules/module.py":1532:0) at callsite("forward"("cerebras/pytorch/backend/ltc_backend.py":945:0) at callsite("compiled_forward"("cerebras/pytorch/core/compile.py":120:0) at callsite("forward"("cerebras/modelzoo/trainer/trainer.py":587:0) at callsite("training_step"("cerebras/modelzoo/trainer/trainer.py":553:0) at callsite("generated_trace_fn"("cerebras/pytorch/core/compile.py":190:0) at callsite("_run_train"("cerebras/modelzoo/trainer/trainer.py":769:0) at callsite("fit"("cerebras/modelzoo/trainer/trainer.py":723:0) at callsite("run_trainer"("cerebras/modelzoo/trainer/utils.py":178:0) at callsite("run_with_params"("cerebras/modelzoo/common/run_utils.py":182:0) at callsite("main"("cerebras/modelzoo/common/run_utils.py":115:0) at callsite("main"("run.py":35:0) at "<module>"("run.py":39:0))))))))))))))))))))))))))))
#loc18 = loc("model.fc_layers.0.fwd/aten::_to_copy"(callsite("__torch_function__"("cerebras/pytorch/core/function_mode.py":116:0) at callsite("to"("cerebras/pytorch/nn/parameter.py":191:0) at callsite("maybe_half"("cerebras/pytorch/amp/utils.py":100:0) at callsite("cached_cast"("cerebras/pytorch/amp/utils.py":194:0) at callsite("wrapper"("cerebras/pytorch/amp/wrap.py":55:0) at callsite("forward"("torch/nn/modules/linear.py":116:0) at callsite("_call_impl"("torch/nn/modules/module.py":1582:0) at callsite("_wrapped_call_impl"("torch/nn/modules/module.py":1532:0) at callsite("forward"("cerebras/modelzoo/fc_mnist/pytorch/model.py":55:0) at callsite("_call_impl"("torch/nn/modules/module.py":1582:0) at callsite("_wrapped_call_impl"("torch/nn/modules/module.py":1532:0) at callsite("forward"("cerebras/modelzoo/fc_mnist/pytorch/model.py":104:0) at callsite("_call_impl"("torch/nn/modules/module.py":1582:0) at callsite("_wrapped_call_impl"("torch/nn/modules/module.py":1532:0) at callsite("forward"("cerebras/pytorch/backend/ltc_backend.py":945:0) at callsite("compiled_forward"("cerebras/pytorch/core/compile.py":120:0) at callsite("forward"("cerebras/modelzoo/trainer/trainer.py":587:0) at callsite("training_step"("cerebras/modelzoo/trainer/trainer.py":553:0) at callsite("generated_trace_fn"("cerebras/pytorch/core/compile.py":190:0) at callsite("_run_train"("cerebras/modelzoo/trainer/trainer.py":769:0) at callsite("fit"("cerebras/modelzoo/trainer/trainer.py":723:0) at callsite("run_trainer"("cerebras/modelzoo/trainer/utils.py":178:0) at callsite("run_with_params"("cerebras/modelzoo/common/run_utils.py":182:0) at callsite("main"("cerebras/modelzoo/common/run_utils.py":115:0) at callsite("main"("run.py":35:0) at "<module>"("run.py":39:0))))))))))))))))))))))))))))
#loc19 = loc("model.fwd/aten::view_copy"(callsite("__torch_function__"("cerebras/pytorch/core/function_mode.py":116:0) at callsite("forward"("cerebras/modelzoo/fc_mnist/pytorch/model.py":53:0) at callsite("_call_impl"("torch/nn/modules/module.py":1582:0) at callsite("_wrapped_call_impl"("torch/nn/modules/module.py":1532:0) at callsite("forward"("cerebras/modelzoo/fc_mnist/pytorch/model.py":104:0) at callsite("_call_impl"("torch/nn/modules/module.py":1582:0) at callsite("_wrapped_call_impl"("torch/nn/modules/module.py":1532:0) at callsite("forward"("cerebras/pytorch/backend/ltc_backend.py":945:0) at callsite("compiled_forward"("cerebras/pytorch/core/compile.py":120:0) at callsite("forward"("cerebras/modelzoo/trainer/trainer.py":587:0) at callsite("training_step"("cerebras/modelzoo/trainer/trainer.py":553:0) at callsite("generated_trace_fn"("cerebras/pytorch/core/compile.py":190:0) at callsite("_run_train"("cerebras/modelzoo/trainer/trainer.py":769:0) at callsite("fit"("cerebras/modelzoo/trainer/trainer.py":723:0) at callsite("run_trainer"("cerebras/modelzoo/trainer/utils.py":178:0) at callsite("run_with_params"("cerebras/modelzoo/common/run_utils.py":182:0) at callsite("main"("cerebras/modelzoo/common/run_utils.py":115:0) at callsite("main"("run.py":35:0) at "<module>"("run.py":39:0)))))))))))))))))))))
#loc20 = loc("model.nonlin.fwd/aten::relu"(callsite("relu"("torch/nn/functional.py":1500:0) at callsite("__torch_function__"("cerebras/pytorch/core/function_mode.py":116:0) at callsite("handle_torch_function"("torch/overrides.py":1619:0) at callsite("relu"("torch/nn/functional.py":1496:0) at callsite("forward"("torch/nn/modules/activation.py":103:0) at callsite("_call_impl"("torch/nn/modules/module.py":1582:0) at callsite("_wrapped_call_impl"("torch/nn/modules/module.py":1532:0) at callsite("forward"("cerebras/modelzoo/fc_mnist/pytorch/model.py":57:0) at callsite("_call_impl"("torch/nn/modules/module.py":1582:0) at callsite("_wrapped_call_impl"("torch/nn/modules/module.py":1532:0) at callsite("forward"("cerebras/modelzoo/fc_mnist/pytorch/model.py":104:0) at callsite("_call_impl"("torch/nn/modules/module.py":1582:0) at callsite("_wrapped_call_impl"("torch/nn/modules/module.py":1532:0) at callsite("forward"("cerebras/pytorch/backend/ltc_backend.py":945:0) at callsite("compiled_forward"("cerebras/pytorch/core/compile.py":120:0) at callsite("forward"("cerebras/modelzoo/trainer/trainer.py":587:0) at callsite("training_step"("cerebras/modelzoo/trainer/trainer.py":553:0) at callsite("generated_trace_fn"("cerebras/pytorch/core/compile.py":190:0) at callsite("_run_train"("cerebras/modelzoo/trainer/trainer.py":769:0) at callsite("fit"("cerebras/modelzoo/trainer/trainer.py":723:0) at callsite("run_trainer"("cerebras/modelzoo/trainer/utils.py":178:0) at callsite("run_with_params"("cerebras/modelzoo/common/run_utils.py":182:0) at callsite("main"("cerebras/modelzoo/common/run_utils.py":115:0) at callsite("main"("run.py":35:0) at "<module>"("run.py":39:0)))))))))))))))))))))))))))
#loc21 = loc("model.fc_layers.1.fwd/aten::addmm"(callsite("__torch_function__"("cerebras/pytorch/core/function_mode.py":116:0) at callsite("wrapper"("cerebras/pytorch/amp/wrap.py":62:0) at callsite("forward"("torch/nn/modules/linear.py":116:0) at callsite("_call_impl"("torch/nn/modules/module.py":1582:0) at callsite("_wrapped_call_impl"("torch/nn/modules/module.py":1532:0) at callsite("forward"("cerebras/modelzoo/fc_mnist/pytorch/model.py":55:0) at callsite("_call_impl"("torch/nn/modules/module.py":1582:0) at callsite("_wrapped_call_impl"("torch/nn/modules/module.py":1532:0) at callsite("forward"("cerebras/modelzoo/fc_mnist/pytorch/model.py":104:0) at callsite("_call_impl"("torch/nn/modules/module.py":1582:0) at callsite("_wrapped_call_impl"("torch/nn/modules/module.py":1532:0) at callsite("forward"("cerebras/pytorch/backend/ltc_backend.py":945:0) at callsite("compiled_forward"("cerebras/pytorch/core/compile.py":120:0) at callsite("forward"("cerebras/modelzoo/trainer/trainer.py":587:0) at callsite("training_step"("cerebras/modelzoo/trainer/trainer.py":553:0) at callsite("generated_trace_fn"("cerebras/pytorch/core/compile.py":190:0) at callsite("_run_train"("cerebras/modelzoo/trainer/trainer.py":769:0) at callsite("fit"("cerebras/modelzoo/trainer/trainer.py":723:0) at callsite("run_trainer"("cerebras/modelzoo/trainer/utils.py":178:0) at callsite("run_with_params"("cerebras/modelzoo/common/run_utils.py":182:0) at callsite("main"("cerebras/modelzoo/common/run_utils.py":115:0) at callsite("main"("run.py":35:0) at "<module>"("run.py":39:0)))))))))))))))))))))))))
#loc22 = loc("model.nonlin.call1.fwd/aten::relu"(callsite("relu"("torch/nn/functional.py":1500:0) at callsite("__torch_function__"("cerebras/pytorch/core/function_mode.py":116:0) at callsite("handle_torch_function"("torch/overrides.py":1619:0) at callsite("relu"("torch/nn/functional.py":1496:0) at callsite("forward"("torch/nn/modules/activation.py":103:0) at callsite("_call_impl"("torch/nn/modules/module.py":1582:0) at callsite("_wrapped_call_impl"("torch/nn/modules/module.py":1532:0) at callsite("forward"("cerebras/modelzoo/fc_mnist/pytorch/model.py":57:0) at callsite("_call_impl"("torch/nn/modules/module.py":1582:0) at callsite("_wrapped_call_impl"("torch/nn/modules/module.py":1532:0) at callsite("forward"("cerebras/modelzoo/fc_mnist/pytorch/model.py":104:0) at callsite("_call_impl"("torch/nn/modules/module.py":1582:0) at callsite("_wrapped_call_impl"("torch/nn/modules/module.py":1532:0) at callsite("forward"("cerebras/pytorch/backend/ltc_backend.py":945:0) at callsite("compiled_forward"("cerebras/pytorch/core/compile.py":120:0) at callsite("forward"("cerebras/modelzoo/trainer/trainer.py":587:0) at callsite("training_step"("cerebras/modelzoo/trainer/trainer.py":553:0) at callsite("generated_trace_fn"("cerebras/pytorch/core/compile.py":190:0) at callsite("_run_train"("cerebras/modelzoo/trainer/trainer.py":769:0) at callsite("fit"("cerebras/modelzoo/trainer/trainer.py":723:0) at callsite("run_trainer"("cerebras/modelzoo/trainer/utils.py":178:0) at callsite("run_with_params"("cerebras/modelzoo/common/run_utils.py":182:0) at callsite("main"("cerebras/modelzoo/common/run_utils.py":115:0) at callsite("main"("run.py":35:0) at "<module>"("run.py":39:0)))))))))))))))))))))))))))
#loc23 = loc("model.dropout.call1.fwd/aten::native_dropout"(callsite("dropout"("torch/nn/functional.py":1295:0) at callsite("wrapper"("cerebras/pytorch/amp/wrap.py":62:0) at callsite("__torch_function__"("cerebras/pytorch/core/function_mode.py":116:0) at callsite("handle_torch_function"("torch/overrides.py":1619:0) at callsite("dropout"("torch/nn/functional.py":1292:0) at callsite("wrapper"("cerebras/pytorch/amp/wrap.py":62:0) at callsite("forward"("torch/nn/modules/dropout.py":59:0) at callsite("_call_impl"("torch/nn/modules/module.py":1582:0) at callsite("_wrapped_call_impl"("torch/nn/modules/module.py":1532:0) at callsite("forward"("cerebras/modelzoo/fc_mnist/pytorch/model.py":58:0) at callsite("_call_impl"("torch/nn/modules/module.py":1582:0) at callsite("_wrapped_call_impl"("torch/nn/modules/module.py":1532:0) at callsite("forward"("cerebras/modelzoo/fc_mnist/pytorch/model.py":104:0) at callsite("_call_impl"("torch/nn/modules/module.py":1582:0) at callsite("_wrapped_call_impl"("torch/nn/modules/module.py":1532:0) at callsite("forward"("cerebras/pytorch/backend/ltc_backend.py":945:0) at callsite("compiled_forward"("cerebras/pytorch/core/compile.py":120:0) at callsite("forward"("cerebras/modelzoo/trainer/trainer.py":587:0) at callsite("training_step"("cerebras/modelzoo/trainer/trainer.py":553:0) at callsite("generated_trace_fn"("cerebras/pytorch/core/compile.py":190:0) at callsite("_run_train"("cerebras/modelzoo/trainer/trainer.py":769:0) at callsite("fit"("cerebras/modelzoo/trainer/trainer.py":723:0) at callsite("run_trainer"("cerebras/modelzoo/trainer/utils.py":178:0) at callsite("run_with_params"("cerebras/modelzoo/common/run_utils.py":182:0) at callsite("main"("cerebras/modelzoo/common/run_utils.py":115:0) at callsite("main"("run.py":35:0) at "<module>"("run.py":39:0)))))))))))))))))))))))))))))
#loc24 = loc("model.fc_layers.2.fwd/aten::addmm"(callsite("__torch_function__"("cerebras/pytorch/core/function_mode.py":116:0) at callsite("wrapper"("cerebras/pytorch/amp/wrap.py":62:0) at callsite("forward"("torch/nn/modules/linear.py":116:0) at callsite("_call_impl"("torch/nn/modules/module.py":1582:0) at callsite("_wrapped_call_impl"("torch/nn/modules/module.py":1532:0) at callsite("forward"("cerebras/modelzoo/fc_mnist/pytorch/model.py":55:0) at callsite("_call_impl"("torch/nn/modules/module.py":1582:0) at callsite("_wrapped_call_impl"("torch/nn/modules/module.py":1532:0) at callsite("forward"("cerebras/modelzoo/fc_mnist/pytorch/model.py":104:0) at callsite("_call_impl"("torch/nn/modules/module.py":1582:0) at callsite("_wrapped_call_impl"("torch/nn/modules/module.py":1532:0) at callsite("forward"("cerebras/pytorch/backend/ltc_backend.py":945:0) at callsite("compiled_forward"("cerebras/pytorch/core/compile.py":120:0) at callsite("forward"("cerebras/modelzoo/trainer/trainer.py":587:0) at callsite("training_step"("cerebras/modelzoo/trainer/trainer.py":553:0) at callsite("generated_trace_fn"("cerebras/pytorch/core/compile.py":190:0) at callsite("_run_train"("cerebras/modelzoo/trainer/trainer.py":769:0) at callsite("fit"("cerebras/modelzoo/trainer/trainer.py":723:0) at callsite("run_trainer"("cerebras/modelzoo/trainer/utils.py":178:0) at callsite("run_with_params"("cerebras/modelzoo/common/run_utils.py":182:0) at callsite("main"("cerebras/modelzoo/common/run_utils.py":115:0) at callsite("main"("run.py":35:0) at "<module>"("run.py":39:0)))))))))))))))))))))))))
#loc25 = loc("model.nonlin.call2.fwd/aten::relu"(callsite("relu"("torch/nn/functional.py":1500:0) at callsite("__torch_function__"("cerebras/pytorch/core/function_mode.py":116:0) at callsite("handle_torch_function"("torch/overrides.py":1619:0) at callsite("relu"("torch/nn/functional.py":1496:0) at callsite("forward"("torch/nn/modules/activation.py":103:0) at callsite("_call_impl"("torch/nn/modules/module.py":1582:0) at callsite("_wrapped_call_impl"("torch/nn/modules/module.py":1532:0) at callsite("forward"("cerebras/modelzoo/fc_mnist/pytorch/model.py":57:0) at callsite("_call_impl"("torch/nn/modules/module.py":1582:0) at callsite("_wrapped_call_impl"("torch/nn/modules/module.py":1532:0) at callsite("forward"("cerebras/modelzoo/fc_mnist/pytorch/model.py":104:0) at callsite("_call_impl"("torch/nn/modules/module.py":1582:0) at callsite("_wrapped_call_impl"("torch/nn/modules/module.py":1532:0) at callsite("forward"("cerebras/pytorch/backend/ltc_backend.py":945:0) at callsite("compiled_forward"("cerebras/pytorch/core/compile.py":120:0) at callsite("forward"("cerebras/modelzoo/trainer/trainer.py":587:0) at callsite("training_step"("cerebras/modelzoo/trainer/trainer.py":553:0) at callsite("generated_trace_fn"("cerebras/pytorch/core/compile.py":190:0) at callsite("_run_train"("cerebras/modelzoo/trainer/trainer.py":769:0) at callsite("fit"("cerebras/modelzoo/trainer/trainer.py":723:0) at callsite("run_trainer"("cerebras/modelzoo/trainer/utils.py":178:0) at callsite("run_with_params"("cerebras/modelzoo/common/run_utils.py":182:0) at callsite("main"("cerebras/modelzoo/common/run_utils.py":115:0) at callsite("main"("run.py":35:0) at "<module>"("run.py":39:0)))))))))))))))))))))))))))
#loc26 = loc("model.dropout.call2.fwd/aten::native_dropout"(callsite("dropout"("torch/nn/functional.py":1295:0) at callsite("wrapper"("cerebras/pytorch/amp/wrap.py":62:0) at callsite("__torch_function__"("cerebras/pytorch/core/function_mode.py":116:0) at callsite("handle_torch_function"("torch/overrides.py":1619:0) at callsite("dropout"("torch/nn/functional.py":1292:0) at callsite("wrapper"("cerebras/pytorch/amp/wrap.py":62:0) at callsite("forward"("torch/nn/modules/dropout.py":59:0) at callsite("_call_impl"("torch/nn/modules/module.py":1582:0) at callsite("_wrapped_call_impl"("torch/nn/modules/module.py":1532:0) at callsite("forward"("cerebras/modelzoo/fc_mnist/pytorch/model.py":58:0) at callsite("_call_impl"("torch/nn/modules/module.py":1582:0) at callsite("_wrapped_call_impl"("torch/nn/modules/module.py":1532:0) at callsite("forward"("cerebras/modelzoo/fc_mnist/pytorch/model.py":104:0) at callsite("_call_impl"("torch/nn/modules/module.py":1582:0) at callsite("_wrapped_call_impl"("torch/nn/modules/module.py":1532:0) at callsite("forward"("cerebras/pytorch/backend/ltc_backend.py":945:0) at callsite("compiled_forward"("cerebras/pytorch/core/compile.py":120:0) at callsite("forward"("cerebras/modelzoo/trainer/trainer.py":587:0) at callsite("training_step"("cerebras/modelzoo/trainer/trainer.py":553:0) at callsite("generated_trace_fn"("cerebras/pytorch/core/compile.py":190:0) at callsite("_run_train"("cerebras/modelzoo/trainer/trainer.py":769:0) at callsite("fit"("cerebras/modelzoo/trainer/trainer.py":723:0) at callsite("run_trainer"("cerebras/modelzoo/trainer/utils.py":178:0) at callsite("run_with_params"("cerebras/modelzoo/common/run_utils.py":182:0) at callsite("main"("cerebras/modelzoo/common/run_utils.py":115:0) at callsite("main"("run.py":35:0) at "<module>"("run.py":39:0)))))))))))))))))))))))))))))
#loc27 = loc("model.last_layer.fwd/aten::addmm"(callsite("__torch_function__"("cerebras/pytorch/core/function_mode.py":116:0) at callsite("wrapper"("cerebras/pytorch/amp/wrap.py":62:0) at callsite("forward"("torch/nn/modules/linear.py":116:0) at callsite("_call_impl"("torch/nn/modules/module.py":1582:0) at callsite("_wrapped_call_impl"("torch/nn/modules/module.py":1532:0) at callsite("forward"("cerebras/modelzoo/fc_mnist/pytorch/model.py":60:0) at callsite("_call_impl"("torch/nn/modules/module.py":1582:0) at callsite("_wrapped_call_impl"("torch/nn/modules/module.py":1532:0) at callsite("forward"("cerebras/modelzoo/fc_mnist/pytorch/model.py":104:0) at callsite("_call_impl"("torch/nn/modules/module.py":1582:0) at callsite("_wrapped_call_impl"("torch/nn/modules/module.py":1532:0) at callsite("forward"("cerebras/pytorch/backend/ltc_backend.py":945:0) at callsite("compiled_forward"("cerebras/pytorch/core/compile.py":120:0) at callsite("forward"("cerebras/modelzoo/trainer/trainer.py":587:0) at callsite("training_step"("cerebras/modelzoo/trainer/trainer.py":553:0) at callsite("generated_trace_fn"("cerebras/pytorch/core/compile.py":190:0) at callsite("_run_train"("cerebras/modelzoo/trainer/trainer.py":769:0) at callsite("fit"("cerebras/modelzoo/trainer/trainer.py":723:0) at callsite("run_trainer"("cerebras/modelzoo/trainer/utils.py":178:0) at callsite("run_with_params"("cerebras/modelzoo/common/run_utils.py":182:0) at callsite("main"("cerebras/modelzoo/common/run_utils.py":115:0) at callsite("main"("run.py":35:0) at "<module>"("run.py":39:0)))))))))))))))))))))))))
#loc28 = loc("MNISTModel_1.fwd/aten::_to_copy"(callsite("__torch_function__"("cerebras/pytorch/core/function_mode.py":116:0) at callsite("maybe_float"("cerebras/pytorch/amp/utils.py":112:0) at callsite("casted_args"("cerebras/pytorch/amp/utils.py":120:0) at callsite("wrapper"("cerebras/pytorch/amp/wrap.py":61:0) at callsite("forward"("cerebras/modelzoo/fc_mnist/pytorch/model.py":110:0) at callsite("_call_impl"("torch/nn/modules/module.py":1582:0) at callsite("_wrapped_call_impl"("torch/nn/modules/module.py":1532:0) at callsite("forward"("cerebras/pytorch/backend/ltc_backend.py":945:0) at callsite("compiled_forward"("cerebras/pytorch/core/compile.py":120:0) at callsite("forward"("cerebras/modelzoo/trainer/trainer.py":587:0) at callsite("training_step"("cerebras/modelzoo/trainer/trainer.py":553:0) at callsite("generated_trace_fn"("cerebras/pytorch/core/compile.py":190:0) at callsite("_run_train"("cerebras/modelzoo/trainer/trainer.py":769:0) at callsite("fit"("cerebras/modelzoo/trainer/trainer.py":723:0) at callsite("run_trainer"("cerebras/modelzoo/trainer/utils.py":178:0) at callsite("run_with_params"("cerebras/modelzoo/common/run_utils.py":182:0) at callsite("main"("cerebras/modelzoo/common/run_utils.py":115:0) at callsite("main"("run.py":35:0) at "<module>"("run.py":39:0)))))))))))))))))))))
#loc29 = loc("loss_fn.bwd/aten::_to_copy"(callsite("_engine_run_backward"("torch/autograd/graph.py":744:0) at callsite("backward"("torch/autograd/__init__.py":267:0) at callsite("backward"("torch/_tensor.py":525:0) at callsite("__torch_function__"("cerebras/pytorch/core/function_mode.py":116:0) at callsite("handle_torch_function"("torch/overrides.py":1619:0) at callsite("backward"("torch/_tensor.py":516:0) at callsite("backward"("cerebras/modelzoo/trainer/callbacks/precision.py":214:0) at callsite("backward"("cerebras/modelzoo/trainer/trainer.py":607:0) at callsite("training_step"("cerebras/modelzoo/trainer/trainer.py":554:0) at callsite("generated_trace_fn"("cerebras/pytorch/core/compile.py":190:0) at callsite("_run_train"("cerebras/modelzoo/trainer/trainer.py":769:0) at callsite("fit"("cerebras/modelzoo/trainer/trainer.py":723:0) at callsite("run_trainer"("cerebras/modelzoo/trainer/utils.py":178:0) at callsite("run_with_params"("cerebras/modelzoo/common/run_utils.py":182:0) at callsite("main"("cerebras/modelzoo/common/run_utils.py":115:0) at callsite("main"("run.py":35:0) at "<module>"("run.py":39:0)))))))))))))))))))
#loc30 = loc("model.last_layer.bwd/aten::sum"(callsite("_engine_run_backward"("torch/autograd/graph.py":744:0) at callsite("backward"("torch/autograd/__init__.py":267:0) at callsite("backward"("torch/_tensor.py":525:0) at callsite("__torch_function__"("cerebras/pytorch/core/function_mode.py":116:0) at callsite("handle_torch_function"("torch/overrides.py":1619:0) at callsite("backward"("torch/_tensor.py":516:0) at callsite("backward"("cerebras/modelzoo/trainer/callbacks/precision.py":214:0) at callsite("backward"("cerebras/modelzoo/trainer/trainer.py":607:0) at callsite("training_step"("cerebras/modelzoo/trainer/trainer.py":554:0) at callsite("generated_trace_fn"("cerebras/pytorch/core/compile.py":190:0) at callsite("_run_train"("cerebras/modelzoo/trainer/trainer.py":769:0) at callsite("fit"("cerebras/modelzoo/trainer/trainer.py":723:0) at callsite("run_trainer"("cerebras/modelzoo/trainer/utils.py":178:0) at callsite("run_with_params"("cerebras/modelzoo/common/run_utils.py":182:0) at callsite("main"("cerebras/modelzoo/common/run_utils.py":115:0) at callsite("main"("run.py":35:0) at "<module>"("run.py":39:0)))))))))))))))))))
#loc31 = loc("model.last_layer.bwd/aten::view_copy"(callsite("_engine_run_backward"("torch/autograd/graph.py":744:0) at callsite("backward"("torch/autograd/__init__.py":267:0) at callsite("backward"("torch/_tensor.py":525:0) at callsite("__torch_function__"("cerebras/pytorch/core/function_mode.py":116:0) at callsite("handle_torch_function"("torch/overrides.py":1619:0) at callsite("backward"("torch/_tensor.py":516:0) at callsite("backward"("cerebras/modelzoo/trainer/callbacks/precision.py":214:0) at callsite("backward"("cerebras/modelzoo/trainer/trainer.py":607:0) at callsite("training_step"("cerebras/modelzoo/trainer/trainer.py":554:0) at callsite("generated_trace_fn"("cerebras/pytorch/core/compile.py":190:0) at callsite("_run_train"("cerebras/modelzoo/trainer/trainer.py":769:0) at callsite("fit"("cerebras/modelzoo/trainer/trainer.py":723:0) at callsite("run_trainer"("cerebras/modelzoo/trainer/utils.py":178:0) at callsite("run_with_params"("cerebras/modelzoo/common/run_utils.py":182:0) at callsite("main"("cerebras/modelzoo/common/run_utils.py":115:0) at callsite("main"("run.py":35:0) at "<module>"("run.py":39:0)))))))))))))))))))
#loc32 = loc("model.last_layer.bwd/aten::_to_copy"(callsite("_engine_run_backward"("torch/autograd/graph.py":744:0) at callsite("backward"("torch/autograd/__init__.py":267:0) at callsite("backward"("torch/_tensor.py":525:0) at callsite("__torch_function__"("cerebras/pytorch/core/function_mode.py":116:0) at callsite("handle_torch_function"("torch/overrides.py":1619:0) at callsite("backward"("torch/_tensor.py":516:0) at callsite("backward"("cerebras/modelzoo/trainer/callbacks/precision.py":214:0) at callsite("backward"("cerebras/modelzoo/trainer/trainer.py":607:0) at callsite("training_step"("cerebras/modelzoo/trainer/trainer.py":554:0) at callsite("generated_trace_fn"("cerebras/pytorch/core/compile.py":190:0) at callsite("_run_train"("cerebras/modelzoo/trainer/trainer.py":769:0) at callsite("fit"("cerebras/modelzoo/trainer/trainer.py":723:0) at callsite("run_trainer"("cerebras/modelzoo/trainer/utils.py":178:0) at callsite("run_with_params"("cerebras/modelzoo/common/run_utils.py":182:0) at callsite("main"("cerebras/modelzoo/common/run_utils.py":115:0) at callsite("main"("run.py":35:0) at "<module>"("run.py":39:0)))))))))))))))))))
#loc33 = loc("grad_norm/aten::norm"(callsite("norm"("torch/functional.py":1641:0) at callsite("__torch_function__"("cerebras/pytorch/core/function_mode.py":116:0) at callsite("handle_torch_function"("torch/overrides.py":1619:0) at callsite("norm"("torch/functional.py":1595:0) at callsite("wrapper"("cerebras/pytorch/amp/wrap.py":62:0) at callsite("compute_grad_norm"("cerebras/modelzoo/trainer/callbacks/norm.py":59:0) at callsite("on_before_optimizer_step"("cerebras/modelzoo/trainer/callbacks/norm.py":92:0) at callsite("call"("cerebras/modelzoo/trainer/trainer.py":369:0) at callsite("optimizer_step"("cerebras/modelzoo/trainer/trainer.py":616:0) at callsite("training_step"("cerebras/modelzoo/trainer/trainer.py":559:0) at callsite("generated_trace_fn"("cerebras/pytorch/core/compile.py":190:0) at callsite("_run_train"("cerebras/modelzoo/trainer/trainer.py":769:0) at callsite("fit"("cerebras/modelzoo/trainer/trainer.py":723:0) at callsite("run_trainer"("cerebras/modelzoo/trainer/utils.py":178:0) at callsite("run_with_params"("cerebras/modelzoo/common/run_utils.py":182:0) at callsite("main"("cerebras/modelzoo/common/run_utils.py":115:0) at callsite("main"("run.py":35:0) at "<module>"("run.py":39:0))))))))))))))))))))
#loc34 = loc("grad_norm/aten::pow"(callsite("__torch_function__"("cerebras/pytorch/core/function_mode.py":116:0) at callsite("wrapper"("cerebras/pytorch/amp/wrap.py":62:0) at callsite("compute_grad_norm"("cerebras/modelzoo/trainer/callbacks/norm.py":59:0) at callsite("on_before_optimizer_step"("cerebras/modelzoo/trainer/callbacks/norm.py":92:0) at callsite("call"("cerebras/modelzoo/trainer/trainer.py":369:0) at callsite("optimizer_step"("cerebras/modelzoo/trainer/trainer.py":616:0) at callsite("training_step"("cerebras/modelzoo/trainer/trainer.py":559:0) at callsite("generated_trace_fn"("cerebras/pytorch/core/compile.py":190:0) at callsite("_run_train"("cerebras/modelzoo/trainer/trainer.py":769:0) at callsite("fit"("cerebras/modelzoo/trainer/trainer.py":723:0) at callsite("run_trainer"("cerebras/modelzoo/trainer/utils.py":178:0) at callsite("run_with_params"("cerebras/modelzoo/common/run_utils.py":182:0) at callsite("main"("cerebras/modelzoo/common/run_utils.py":115:0) at callsite("main"("run.py":35:0) at "<module>"("run.py":39:0)))))))))))))))))
#loc35 = loc("model.last_layer.bwd/aten::mm"(callsite("_engine_run_backward"("torch/autograd/graph.py":744:0) at callsite("backward"("torch/autograd/__init__.py":267:0) at callsite("backward"("torch/_tensor.py":525:0) at callsite("__torch_function__"("cerebras/pytorch/core/function_mode.py":116:0) at callsite("handle_torch_function"("torch/overrides.py":1619:0) at callsite("backward"("torch/_tensor.py":516:0) at callsite("backward"("cerebras/modelzoo/trainer/callbacks/precision.py":214:0) at callsite("backward"("cerebras/modelzoo/trainer/trainer.py":607:0) at callsite("training_step"("cerebras/modelzoo/trainer/trainer.py":554:0) at callsite("generated_trace_fn"("cerebras/pytorch/core/compile.py":190:0) at callsite("_run_train"("cerebras/modelzoo/trainer/trainer.py":769:0) at callsite("fit"("cerebras/modelzoo/trainer/trainer.py":723:0) at callsite("run_trainer"("cerebras/modelzoo/trainer/utils.py":178:0) at callsite("run_with_params"("cerebras/modelzoo/common/run_utils.py":182:0) at callsite("main"("cerebras/modelzoo/common/run_utils.py":115:0) at callsite("main"("run.py":35:0) at "<module>"("run.py":39:0)))))))))))))))))))
#loc36 = loc("model.dropout.call2.bwd/aten::native_dropout_backward"(callsite("_engine_run_backward"("torch/autograd/graph.py":744:0) at callsite("backward"("torch/autograd/__init__.py":267:0) at callsite("backward"("torch/_tensor.py":525:0) at callsite("__torch_function__"("cerebras/pytorch/core/function_mode.py":116:0) at callsite("handle_torch_function"("torch/overrides.py":1619:0) at callsite("backward"("torch/_tensor.py":516:0) at callsite("backward"("cerebras/modelzoo/trainer/callbacks/precision.py":214:0) at callsite("backward"("cerebras/modelzoo/trainer/trainer.py":607:0) at callsite("training_step"("cerebras/modelzoo/trainer/trainer.py":554:0) at callsite("generated_trace_fn"("cerebras/pytorch/core/compile.py":190:0) at callsite("_run_train"("cerebras/modelzoo/trainer/trainer.py":769:0) at callsite("fit"("cerebras/modelzoo/trainer/trainer.py":723:0) at callsite("run_trainer"("cerebras/modelzoo/trainer/utils.py":178:0) at callsite("run_with_params"("cerebras/modelzoo/common/run_utils.py":182:0) at callsite("main"("cerebras/modelzoo/common/run_utils.py":115:0) at callsite("main"("run.py":35:0) at "<module>"("run.py":39:0)))))))))))))))))))
#loc37 = loc("model.fc_layers.2.bwd/aten::sum"(callsite("_engine_run_backward"("torch/autograd/graph.py":744:0) at callsite("backward"("torch/autograd/__init__.py":267:0) at callsite("backward"("torch/_tensor.py":525:0) at callsite("__torch_function__"("cerebras/pytorch/core/function_mode.py":116:0) at callsite("handle_torch_function"("torch/overrides.py":1619:0) at callsite("backward"("torch/_tensor.py":516:0) at callsite("backward"("cerebras/modelzoo/trainer/callbacks/precision.py":214:0) at callsite("backward"("cerebras/modelzoo/trainer/trainer.py":607:0) at callsite("training_step"("cerebras/modelzoo/trainer/trainer.py":554:0) at callsite("generated_trace_fn"("cerebras/pytorch/core/compile.py":190:0) at callsite("_run_train"("cerebras/modelzoo/trainer/trainer.py":769:0) at callsite("fit"("cerebras/modelzoo/trainer/trainer.py":723:0) at callsite("run_trainer"("cerebras/modelzoo/trainer/utils.py":178:0) at callsite("run_with_params"("cerebras/modelzoo/common/run_utils.py":182:0) at callsite("main"("cerebras/modelzoo/common/run_utils.py":115:0) at callsite("main"("run.py":35:0) at "<module>"("run.py":39:0)))))))))))))))))))
#loc38 = loc("model.fc_layers.2.bwd/aten::view_copy"(callsite("_engine_run_backward"("torch/autograd/graph.py":744:0) at callsite("backward"("torch/autograd/__init__.py":267:0) at callsite("backward"("torch/_tensor.py":525:0) at callsite("__torch_function__"("cerebras/pytorch/core/function_mode.py":116:0) at callsite("handle_torch_function"("torch/overrides.py":1619:0) at callsite("backward"("torch/_tensor.py":516:0) at callsite("backward"("cerebras/modelzoo/trainer/callbacks/precision.py":214:0) at callsite("backward"("cerebras/modelzoo/trainer/trainer.py":607:0) at callsite("training_step"("cerebras/modelzoo/trainer/trainer.py":554:0) at callsite("generated_trace_fn"("cerebras/pytorch/core/compile.py":190:0) at callsite("_run_train"("cerebras/modelzoo/trainer/trainer.py":769:0) at callsite("fit"("cerebras/modelzoo/trainer/trainer.py":723:0) at callsite("run_trainer"("cerebras/modelzoo/trainer/utils.py":178:0) at callsite("run_with_params"("cerebras/modelzoo/common/run_utils.py":182:0) at callsite("main"("cerebras/modelzoo/common/run_utils.py":115:0) at callsite("main"("run.py":35:0) at "<module>"("run.py":39:0)))))))))))))))))))
#loc39 = loc("model.fc_layers.2.bwd/aten::_to_copy"(callsite("_engine_run_backward"("torch/autograd/graph.py":744:0) at callsite("backward"("torch/autograd/__init__.py":267:0) at callsite("backward"("torch/_tensor.py":525:0) at callsite("__torch_function__"("cerebras/pytorch/core/function_mode.py":116:0) at callsite("handle_torch_function"("torch/overrides.py":1619:0) at callsite("backward"("torch/_tensor.py":516:0) at callsite("backward"("cerebras/modelzoo/trainer/callbacks/precision.py":214:0) at callsite("backward"("cerebras/modelzoo/trainer/trainer.py":607:0) at callsite("training_step"("cerebras/modelzoo/trainer/trainer.py":554:0) at callsite("generated_trace_fn"("cerebras/pytorch/core/compile.py":190:0) at callsite("_run_train"("cerebras/modelzoo/trainer/trainer.py":769:0) at callsite("fit"("cerebras/modelzoo/trainer/trainer.py":723:0) at callsite("run_trainer"("cerebras/modelzoo/trainer/utils.py":178:0) at callsite("run_with_params"("cerebras/modelzoo/common/run_utils.py":182:0) at callsite("main"("cerebras/modelzoo/common/run_utils.py":115:0) at callsite("main"("run.py":35:0) at "<module>"("run.py":39:0)))))))))))))))))))
#loc40 = loc("model.fc_layers.2.bwd/aten::mm"(callsite("_engine_run_backward"("torch/autograd/graph.py":744:0) at callsite("backward"("torch/autograd/__init__.py":267:0) at callsite("backward"("torch/_tensor.py":525:0) at callsite("__torch_function__"("cerebras/pytorch/core/function_mode.py":116:0) at callsite("handle_torch_function"("torch/overrides.py":1619:0) at callsite("backward"("torch/_tensor.py":516:0) at callsite("backward"("cerebras/modelzoo/trainer/callbacks/precision.py":214:0) at callsite("backward"("cerebras/modelzoo/trainer/trainer.py":607:0) at callsite("training_step"("cerebras/modelzoo/trainer/trainer.py":554:0) at callsite("generated_trace_fn"("cerebras/pytorch/core/compile.py":190:0) at callsite("_run_train"("cerebras/modelzoo/trainer/trainer.py":769:0) at callsite("fit"("cerebras/modelzoo/trainer/trainer.py":723:0) at callsite("run_trainer"("cerebras/modelzoo/trainer/utils.py":178:0) at callsite("run_with_params"("cerebras/modelzoo/common/run_utils.py":182:0) at callsite("main"("cerebras/modelzoo/common/run_utils.py":115:0) at callsite("main"("run.py":35:0) at "<module>"("run.py":39:0)))))))))))))))))))
#loc41 = loc("model.dropout.call1.bwd/aten::native_dropout_backward"(callsite("_engine_run_backward"("torch/autograd/graph.py":744:0) at callsite("backward"("torch/autograd/__init__.py":267:0) at callsite("backward"("torch/_tensor.py":525:0) at callsite("__torch_function__"("cerebras/pytorch/core/function_mode.py":116:0) at callsite("handle_torch_function"("torch/overrides.py":1619:0) at callsite("backward"("torch/_tensor.py":516:0) at callsite("backward"("cerebras/modelzoo/trainer/callbacks/precision.py":214:0) at callsite("backward"("cerebras/modelzoo/trainer/trainer.py":607:0) at callsite("training_step"("cerebras/modelzoo/trainer/trainer.py":554:0) at callsite("generated_trace_fn"("cerebras/pytorch/core/compile.py":190:0) at callsite("_run_train"("cerebras/modelzoo/trainer/trainer.py":769:0) at callsite("fit"("cerebras/modelzoo/trainer/trainer.py":723:0) at callsite("run_trainer"("cerebras/modelzoo/trainer/utils.py":178:0) at callsite("run_with_params"("cerebras/modelzoo/common/run_utils.py":182:0) at callsite("main"("cerebras/modelzoo/common/run_utils.py":115:0) at callsite("main"("run.py":35:0) at "<module>"("run.py":39:0)))))))))))))))))))
#loc42 = loc("model.nonlin.call1.bwd/aten::threshold_backward"(callsite("_engine_run_backward"("torch/autograd/graph.py":744:0) at callsite("backward"("torch/autograd/__init__.py":267:0) at callsite("backward"("torch/_tensor.py":525:0) at callsite("__torch_function__"("cerebras/pytorch/core/function_mode.py":116:0) at callsite("handle_torch_function"("torch/overrides.py":1619:0) at callsite("backward"("torch/_tensor.py":516:0) at callsite("backward"("cerebras/modelzoo/trainer/callbacks/precision.py":214:0) at callsite("backward"("cerebras/modelzoo/trainer/trainer.py":607:0) at callsite("training_step"("cerebras/modelzoo/trainer/trainer.py":554:0) at callsite("generated_trace_fn"("cerebras/pytorch/core/compile.py":190:0) at callsite("_run_train"("cerebras/modelzoo/trainer/trainer.py":769:0) at callsite("fit"("cerebras/modelzoo/trainer/trainer.py":723:0) at callsite("run_trainer"("cerebras/modelzoo/trainer/utils.py":178:0) at callsite("run_with_params"("cerebras/modelzoo/common/run_utils.py":182:0) at callsite("main"("cerebras/modelzoo/common/run_utils.py":115:0) at callsite("main"("run.py":35:0) at "<module>"("run.py":39:0)))))))))))))))))))
#loc43 = loc("model.fc_layers.1.bwd/aten::sum"(callsite("_engine_run_backward"("torch/autograd/graph.py":744:0) at callsite("backward"("torch/autograd/__init__.py":267:0) at callsite("backward"("torch/_tensor.py":525:0) at callsite("__torch_function__"("cerebras/pytorch/core/function_mode.py":116:0) at callsite("handle_torch_function"("torch/overrides.py":1619:0) at callsite("backward"("torch/_tensor.py":516:0) at callsite("backward"("cerebras/modelzoo/trainer/callbacks/precision.py":214:0) at callsite("backward"("cerebras/modelzoo/trainer/trainer.py":607:0) at callsite("training_step"("cerebras/modelzoo/trainer/trainer.py":554:0) at callsite("generated_trace_fn"("cerebras/pytorch/core/compile.py":190:0) at callsite("_run_train"("cerebras/modelzoo/trainer/trainer.py":769:0) at callsite("fit"("cerebras/modelzoo/trainer/trainer.py":723:0) at callsite("run_trainer"("cerebras/modelzoo/trainer/utils.py":178:0) at callsite("run_with_params"("cerebras/modelzoo/common/run_utils.py":182:0) at callsite("main"("cerebras/modelzoo/common/run_utils.py":115:0) at callsite("main"("run.py":35:0) at "<module>"("run.py":39:0)))))))))))))))))))
#loc44 = loc("model.fc_layers.1.bwd/aten::view_copy"(callsite("_engine_run_backward"("torch/autograd/graph.py":744:0) at callsite("backward"("torch/autograd/__init__.py":267:0) at callsite("backward"("torch/_tensor.py":525:0) at callsite("__torch_function__"("cerebras/pytorch/core/function_mode.py":116:0) at callsite("handle_torch_function"("torch/overrides.py":1619:0) at callsite("backward"("torch/_tensor.py":516:0) at callsite("backward"("cerebras/modelzoo/trainer/callbacks/precision.py":214:0) at callsite("backward"("cerebras/modelzoo/trainer/trainer.py":607:0) at callsite("training_step"("cerebras/modelzoo/trainer/trainer.py":554:0) at callsite("generated_trace_fn"("cerebras/pytorch/core/compile.py":190:0) at callsite("_run_train"("cerebras/modelzoo/trainer/trainer.py":769:0) at callsite("fit"("cerebras/modelzoo/trainer/trainer.py":723:0) at callsite("run_trainer"("cerebras/modelzoo/trainer/utils.py":178:0) at callsite("run_with_params"("cerebras/modelzoo/common/run_utils.py":182:0) at callsite("main"("cerebras/modelzoo/common/run_utils.py":115:0) at callsite("main"("run.py":35:0) at "<module>"("run.py":39:0)))))))))))))))))))
#loc45 = loc("model.fc_layers.1.bwd/aten::_to_copy"(callsite("_engine_run_backward"("torch/autograd/graph.py":744:0) at callsite("backward"("torch/autograd/__init__.py":267:0) at callsite("backward"("torch/_tensor.py":525:0) at callsite("__torch_function__"("cerebras/pytorch/core/function_mode.py":116:0) at callsite("handle_torch_function"("torch/overrides.py":1619:0) at callsite("backward"("torch/_tensor.py":516:0) at callsite("backward"("cerebras/modelzoo/trainer/callbacks/precision.py":214:0) at callsite("backward"("cerebras/modelzoo/trainer/trainer.py":607:0) at callsite("training_step"("cerebras/modelzoo/trainer/trainer.py":554:0) at callsite("generated_trace_fn"("cerebras/pytorch/core/compile.py":190:0) at callsite("_run_train"("cerebras/modelzoo/trainer/trainer.py":769:0) at callsite("fit"("cerebras/modelzoo/trainer/trainer.py":723:0) at callsite("run_trainer"("cerebras/modelzoo/trainer/utils.py":178:0) at callsite("run_with_params"("cerebras/modelzoo/common/run_utils.py":182:0) at callsite("main"("cerebras/modelzoo/common/run_utils.py":115:0) at callsite("main"("run.py":35:0) at "<module>"("run.py":39:0)))))))))))))))))))
#loc46 = loc("model.fc_layers.1.bwd/aten::mm"(callsite("_engine_run_backward"("torch/autograd/graph.py":744:0) at callsite("backward"("torch/autograd/__init__.py":267:0) at callsite("backward"("torch/_tensor.py":525:0) at callsite("__torch_function__"("cerebras/pytorch/core/function_mode.py":116:0) at callsite("handle_torch_function"("torch/overrides.py":1619:0) at callsite("backward"("torch/_tensor.py":516:0) at callsite("backward"("cerebras/modelzoo/trainer/callbacks/precision.py":214:0) at callsite("backward"("cerebras/modelzoo/trainer/trainer.py":607:0) at callsite("training_step"("cerebras/modelzoo/trainer/trainer.py":554:0) at callsite("generated_trace_fn"("cerebras/pytorch/core/compile.py":190:0) at callsite("_run_train"("cerebras/modelzoo/trainer/trainer.py":769:0) at callsite("fit"("cerebras/modelzoo/trainer/trainer.py":723:0) at callsite("run_trainer"("cerebras/modelzoo/trainer/utils.py":178:0) at callsite("run_with_params"("cerebras/modelzoo/common/run_utils.py":182:0) at callsite("main"("cerebras/modelzoo/common/run_utils.py":115:0) at callsite("main"("run.py":35:0) at "<module>"("run.py":39:0)))))))))))))))))))
#loc47 = loc("model.dropout.bwd/aten::native_dropout_backward"(callsite("_engine_run_backward"("torch/autograd/graph.py":744:0) at callsite("backward"("torch/autograd/__init__.py":267:0) at callsite("backward"("torch/_tensor.py":525:0) at callsite("__torch_function__"("cerebras/pytorch/core/function_mode.py":116:0) at callsite("handle_torch_function"("torch/overrides.py":1619:0) at callsite("backward"("torch/_tensor.py":516:0) at callsite("backward"("cerebras/modelzoo/trainer/callbacks/precision.py":214:0) at callsite("backward"("cerebras/modelzoo/trainer/trainer.py":607:0) at callsite("training_step"("cerebras/modelzoo/trainer/trainer.py":554:0) at callsite("generated_trace_fn"("cerebras/pytorch/core/compile.py":190:0) at callsite("_run_train"("cerebras/modelzoo/trainer/trainer.py":769:0) at callsite("fit"("cerebras/modelzoo/trainer/trainer.py":723:0) at callsite("run_trainer"("cerebras/modelzoo/trainer/utils.py":178:0) at callsite("run_with_params"("cerebras/modelzoo/common/run_utils.py":182:0) at callsite("main"("cerebras/modelzoo/common/run_utils.py":115:0) at callsite("main"("run.py":35:0) at "<module>"("run.py":39:0)))))))))))))))))))
#loc48 = loc("model.nonlin.bwd/aten::threshold_backward"(callsite("_engine_run_backward"("torch/autograd/graph.py":744:0) at callsite("backward"("torch/autograd/__init__.py":267:0) at callsite("backward"("torch/_tensor.py":525:0) at callsite("__torch_function__"("cerebras/pytorch/core/function_mode.py":116:0) at callsite("handle_torch_function"("torch/overrides.py":1619:0) at callsite("backward"("torch/_tensor.py":516:0) at callsite("backward"("cerebras/modelzoo/trainer/callbacks/precision.py":214:0) at callsite("backward"("cerebras/modelzoo/trainer/trainer.py":607:0) at callsite("training_step"("cerebras/modelzoo/trainer/trainer.py":554:0) at callsite("generated_trace_fn"("cerebras/pytorch/core/compile.py":190:0) at callsite("_run_train"("cerebras/modelzoo/trainer/trainer.py":769:0) at callsite("fit"("cerebras/modelzoo/trainer/trainer.py":723:0) at callsite("run_trainer"("cerebras/modelzoo/trainer/utils.py":178:0) at callsite("run_with_params"("cerebras/modelzoo/common/run_utils.py":182:0) at callsite("main"("cerebras/modelzoo/common/run_utils.py":115:0) at callsite("main"("run.py":35:0) at "<module>"("run.py":39:0)))))))))))))))))))
#loc49 = loc("model.fc_layers.0.bwd/aten::sum"(callsite("_engine_run_backward"("torch/autograd/graph.py":744:0) at callsite("backward"("torch/autograd/__init__.py":267:0) at callsite("backward"("torch/_tensor.py":525:0) at callsite("__torch_function__"("cerebras/pytorch/core/function_mode.py":116:0) at callsite("handle_torch_function"("torch/overrides.py":1619:0) at callsite("backward"("torch/_tensor.py":516:0) at callsite("backward"("cerebras/modelzoo/trainer/callbacks/precision.py":214:0) at callsite("backward"("cerebras/modelzoo/trainer/trainer.py":607:0) at callsite("training_step"("cerebras/modelzoo/trainer/trainer.py":554:0) at callsite("generated_trace_fn"("cerebras/pytorch/core/compile.py":190:0) at callsite("_run_train"("cerebras/modelzoo/trainer/trainer.py":769:0) at callsite("fit"("cerebras/modelzoo/trainer/trainer.py":723:0) at callsite("run_trainer"("cerebras/modelzoo/trainer/utils.py":178:0) at callsite("run_with_params"("cerebras/modelzoo/common/run_utils.py":182:0) at callsite("main"("cerebras/modelzoo/common/run_utils.py":115:0) at callsite("main"("run.py":35:0) at "<module>"("run.py":39:0)))))))))))))))))))
#loc50 = loc("model.fc_layers.0.bwd/aten::view_copy"(callsite("_engine_run_backward"("torch/autograd/graph.py":744:0) at callsite("backward"("torch/autograd/__init__.py":267:0) at callsite("backward"("torch/_tensor.py":525:0) at callsite("__torch_function__"("cerebras/pytorch/core/function_mode.py":116:0) at callsite("handle_torch_function"("torch/overrides.py":1619:0) at callsite("backward"("torch/_tensor.py":516:0) at callsite("backward"("cerebras/modelzoo/trainer/callbacks/precision.py":214:0) at callsite("backward"("cerebras/modelzoo/trainer/trainer.py":607:0) at callsite("training_step"("cerebras/modelzoo/trainer/trainer.py":554:0) at callsite("generated_trace_fn"("cerebras/pytorch/core/compile.py":190:0) at callsite("_run_train"("cerebras/modelzoo/trainer/trainer.py":769:0) at callsite("fit"("cerebras/modelzoo/trainer/trainer.py":723:0) at callsite("run_trainer"("cerebras/modelzoo/trainer/utils.py":178:0) at callsite("run_with_params"("cerebras/modelzoo/common/run_utils.py":182:0) at callsite("main"("cerebras/modelzoo/common/run_utils.py":115:0) at callsite("main"("run.py":35:0) at "<module>"("run.py":39:0)))))))))))))))))))
#loc51 = loc("model.fc_layers.0.bwd/aten::_to_copy"(callsite("_engine_run_backward"("torch/autograd/graph.py":744:0) at callsite("backward"("torch/autograd/__init__.py":267:0) at callsite("backward"("torch/_tensor.py":525:0) at callsite("__torch_function__"("cerebras/pytorch/core/function_mode.py":116:0) at callsite("handle_torch_function"("torch/overrides.py":1619:0) at callsite("backward"("torch/_tensor.py":516:0) at callsite("backward"("cerebras/modelzoo/trainer/callbacks/precision.py":214:0) at callsite("backward"("cerebras/modelzoo/trainer/trainer.py":607:0) at callsite("training_step"("cerebras/modelzoo/trainer/trainer.py":554:0) at callsite("generated_trace_fn"("cerebras/pytorch/core/compile.py":190:0) at callsite("_run_train"("cerebras/modelzoo/trainer/trainer.py":769:0) at callsite("fit"("cerebras/modelzoo/trainer/trainer.py":723:0) at callsite("run_trainer"("cerebras/modelzoo/trainer/utils.py":178:0) at callsite("run_with_params"("cerebras/modelzoo/common/run_utils.py":182:0) at callsite("main"("cerebras/modelzoo/common/run_utils.py":115:0) at callsite("main"("run.py":35:0) at "<module>"("run.py":39:0)))))))))))))))))))
#loc52 = loc("model.fc_layers.0.bwd/aten::mm"(callsite("_engine_run_backward"("torch/autograd/graph.py":744:0) at callsite("backward"("torch/autograd/__init__.py":267:0) at callsite("backward"("torch/_tensor.py":525:0) at callsite("__torch_function__"("cerebras/pytorch/core/function_mode.py":116:0) at callsite("handle_torch_function"("torch/overrides.py":1619:0) at callsite("backward"("torch/_tensor.py":516:0) at callsite("backward"("cerebras/modelzoo/trainer/callbacks/precision.py":214:0) at callsite("backward"("cerebras/modelzoo/trainer/trainer.py":607:0) at callsite("training_step"("cerebras/modelzoo/trainer/trainer.py":554:0) at callsite("generated_trace_fn"("cerebras/pytorch/core/compile.py":190:0) at callsite("_run_train"("cerebras/modelzoo/trainer/trainer.py":769:0) at callsite("fit"("cerebras/modelzoo/trainer/trainer.py":723:0) at callsite("run_trainer"("cerebras/modelzoo/trainer/utils.py":178:0) at callsite("run_with_params"("cerebras/modelzoo/common/run_utils.py":182:0) at callsite("main"("cerebras/modelzoo/common/run_utils.py":115:0) at callsite("main"("run.py":35:0) at "<module>"("run.py":39:0)))))))))))))))))))
#loc53 = loc("grad_norm/aten::add"(callsite("wrapper"("cerebras/pytorch/amp/wrap.py":156:0) at callsite("__torch_function__"("cerebras/pytorch/core/function_mode.py":116:0) at callsite("wrapper"("cerebras/pytorch/amp/wrap.py":94:0) at callsite("compute_grad_norm"("cerebras/modelzoo/trainer/callbacks/norm.py":59:0) at callsite("on_before_optimizer_step"("cerebras/modelzoo/trainer/callbacks/norm.py":92:0) at callsite("call"("cerebras/modelzoo/trainer/trainer.py":369:0) at callsite("optimizer_step"("cerebras/modelzoo/trainer/trainer.py":616:0) at callsite("training_step"("cerebras/modelzoo/trainer/trainer.py":559:0) at callsite("generated_trace_fn"("cerebras/pytorch/core/compile.py":190:0) at callsite("_run_train"("cerebras/modelzoo/trainer/trainer.py":769:0) at callsite("fit"("cerebras/modelzoo/trainer/trainer.py":723:0) at callsite("run_trainer"("cerebras/modelzoo/trainer/utils.py":178:0) at callsite("run_with_params"("cerebras/modelzoo/common/run_utils.py":182:0) at callsite("main"("cerebras/modelzoo/common/run_utils.py":115:0) at callsite("main"("run.py":35:0) at "<module>"("run.py":39:0))))))))))))))))))
#loc54 = loc("grad_norm/aten::sqrt"(callsite("__torch_function__"("cerebras/pytorch/core/function_mode.py":116:0) at callsite("compute_grad_norm"("cerebras/modelzoo/trainer/callbacks/norm.py":60:0) at callsite("on_before_optimizer_step"("cerebras/modelzoo/trainer/callbacks/norm.py":92:0) at callsite("call"("cerebras/modelzoo/trainer/trainer.py":369:0) at callsite("optimizer_step"("cerebras/modelzoo/trainer/trainer.py":616:0) at callsite("training_step"("cerebras/modelzoo/trainer/trainer.py":559:0) at callsite("generated_trace_fn"("cerebras/pytorch/core/compile.py":190:0) at callsite("_run_train"("cerebras/modelzoo/trainer/trainer.py":769:0) at callsite("fit"("cerebras/modelzoo/trainer/trainer.py":723:0) at callsite("run_trainer"("cerebras/modelzoo/trainer/utils.py":178:0) at callsite("run_with_params"("cerebras/modelzoo/common/run_utils.py":182:0) at callsite("main"("cerebras/modelzoo/common/run_utils.py":115:0) at callsite("main"("run.py":35:0) at "<module>"("run.py":39:0))))))))))))))))
#loc55 = loc("grad_norm/aten::sqrt"(callsite("__torch_function__"("cerebras/pytorch/core/function_mode.py":116:0) at callsite("<dictcomp>"("cerebras/modelzoo/trainer/callbacks/norm.py":83:0) at callsite("compute_grad_norm"("cerebras/modelzoo/trainer/callbacks/norm.py":82:0) at callsite("on_before_optimizer_step"("cerebras/modelzoo/trainer/callbacks/norm.py":92:0) at callsite("call"("cerebras/modelzoo/trainer/trainer.py":369:0) at callsite("optimizer_step"("cerebras/modelzoo/trainer/trainer.py":616:0) at callsite("training_step"("cerebras/modelzoo/trainer/trainer.py":559:0) at callsite("generated_trace_fn"("cerebras/pytorch/core/compile.py":190:0) at callsite("_run_train"("cerebras/modelzoo/trainer/trainer.py":769:0) at callsite("fit"("cerebras/modelzoo/trainer/trainer.py":723:0) at callsite("run_trainer"("cerebras/modelzoo/trainer/utils.py":178:0) at callsite("run_with_params"("cerebras/modelzoo/common/run_utils.py":182:0) at callsite("main"("cerebras/modelzoo/common/run_utils.py":115:0) at callsite("main"("run.py":35:0) at "<module>"("run.py":39:0)))))))))))))))))
#loc56 = loc("grad_norm/aten::add"(callsite("wrapper"("cerebras/pytorch/amp/wrap.py":156:0) at callsite("__torch_function__"("cerebras/pytorch/core/function_mode.py":116:0) at callsite("wrapper"("cerebras/pytorch/amp/wrap.py":94:0) at callsite("compute_grad_norm"("cerebras/modelzoo/trainer/callbacks/norm.py":77:0) at callsite("on_before_optimizer_step"("cerebras/modelzoo/trainer/callbacks/norm.py":92:0) at callsite("call"("cerebras/modelzoo/trainer/trainer.py":369:0) at callsite("optimizer_step"("cerebras/modelzoo/trainer/trainer.py":616:0) at callsite("training_step"("cerebras/modelzoo/trainer/trainer.py":559:0) at callsite("generated_trace_fn"("cerebras/pytorch/core/compile.py":190:0) at callsite("_run_train"("cerebras/modelzoo/trainer/trainer.py":769:0) at callsite("fit"("cerebras/modelzoo/trainer/trainer.py":723:0) at callsite("run_trainer"("cerebras/modelzoo/trainer/utils.py":178:0) at callsite("run_with_params"("cerebras/modelzoo/common/run_utils.py":182:0) at callsite("main"("cerebras/modelzoo/common/run_utils.py":115:0) at callsite("main"("run.py":35:0) at "<module>"("run.py":39:0))))))))))))))))))
#loc57 = loc("grad_scaler.step/aten::mul"(callsite("wrapper"("cerebras/pytorch/amp/wrap.py":146:0) at callsite("__torch_function__"("cerebras/pytorch/core/function_mode.py":116:0) at callsite("wrapper"("cerebras/pytorch/amp/wrap.py":89:0) at callsite("step"("cerebras/pytorch/optim/AdamBase.py":136:0) at callsite("decorate_context"("torch/utils/_contextlib.py":115:0) at callsite("wrapper"("torch/optim/optimizer.py":391:0) at callsite("wrapper"("cerebras/pytorch/optim/scheduler.py":99:0) at callsite("step_if_finite"("cerebras/pytorch/amp/grad_scaler.py":340:0) at callsite("step"("cerebras/pytorch/amp/grad_scaler.py":423:0) at callsite("optimizer_step"("cerebras/modelzoo/trainer/callbacks/precision.py":241:0) at callsite("optimizer_step"("cerebras/modelzoo/trainer/trainer.py":620:0) at callsite("training_step"("cerebras/modelzoo/trainer/trainer.py":559:0) at callsite("generated_trace_fn"("cerebras/pytorch/core/compile.py":190:0) at callsite("_run_train"("cerebras/modelzoo/trainer/trainer.py":769:0) at callsite("fit"("cerebras/modelzoo/trainer/trainer.py":723:0) at callsite("run_trainer"("cerebras/modelzoo/trainer/utils.py":178:0) at callsite("run_with_params"("cerebras/modelzoo/common/run_utils.py":182:0) at callsite("main"("cerebras/modelzoo/common/run_utils.py":115:0) at callsite("main"("run.py":35:0) at "<module>"("run.py":39:0))))))))))))))))))))))
#loc58 = loc("grad_scaler.step/aten::mul"(callsite("wrapper"("cerebras/pytorch/amp/wrap.py":146:0) at callsite("__torch_function__"("cerebras/pytorch/core/function_mode.py":116:0) at callsite("wrapper"("cerebras/pytorch/amp/wrap.py":89:0) at callsite("step"("cerebras/pytorch/optim/AdamBase.py":137:0) at callsite("decorate_context"("torch/utils/_contextlib.py":115:0) at callsite("wrapper"("torch/optim/optimizer.py":391:0) at callsite("wrapper"("cerebras/pytorch/optim/scheduler.py":99:0) at callsite("step_if_finite"("cerebras/pytorch/amp/grad_scaler.py":340:0) at callsite("step"("cerebras/pytorch/amp/grad_scaler.py":423:0) at callsite("optimizer_step"("cerebras/modelzoo/trainer/callbacks/precision.py":241:0) at callsite("optimizer_step"("cerebras/modelzoo/trainer/trainer.py":620:0) at callsite("training_step"("cerebras/modelzoo/trainer/trainer.py":559:0) at callsite("generated_trace_fn"("cerebras/pytorch/core/compile.py":190:0) at callsite("_run_train"("cerebras/modelzoo/trainer/trainer.py":769:0) at callsite("fit"("cerebras/modelzoo/trainer/trainer.py":723:0) at callsite("run_trainer"("cerebras/modelzoo/trainer/utils.py":178:0) at callsite("run_with_params"("cerebras/modelzoo/common/run_utils.py":182:0) at callsite("main"("cerebras/modelzoo/common/run_utils.py":115:0) at callsite("main"("run.py":35:0) at "<module>"("run.py":39:0))))))))))))))))))))))
#loc59 = loc("grad_scaler.step/aten::sub"(callsite("__torch_function__"("cerebras/pytorch/core/function_mode.py":116:0) at callsite("wrapper"("cerebras/pytorch/amp/wrap.py":89:0) at callsite("step"("cerebras/pytorch/optim/AdamBase.py":131:0) at callsite("decorate_context"("torch/utils/_contextlib.py":115:0) at callsite("wrapper"("torch/optim/optimizer.py":391:0) at callsite("wrapper"("cerebras/pytorch/optim/scheduler.py":99:0) at callsite("step_if_finite"("cerebras/pytorch/amp/grad_scaler.py":340:0) at callsite("step"("cerebras/pytorch/amp/grad_scaler.py":423:0) at callsite("optimizer_step"("cerebras/modelzoo/trainer/callbacks/precision.py":241:0) at callsite("optimizer_step"("cerebras/modelzoo/trainer/trainer.py":620:0) at callsite("training_step"("cerebras/modelzoo/trainer/trainer.py":559:0) at callsite("generated_trace_fn"("cerebras/pytorch/core/compile.py":190:0) at callsite("_run_train"("cerebras/modelzoo/trainer/trainer.py":769:0) at callsite("fit"("cerebras/modelzoo/trainer/trainer.py":723:0) at callsite("run_trainer"("cerebras/modelzoo/trainer/utils.py":178:0) at callsite("run_with_params"("cerebras/modelzoo/common/run_utils.py":182:0) at callsite("main"("cerebras/modelzoo/common/run_utils.py":115:0) at callsite("main"("run.py":35:0) at "<module>"("run.py":39:0)))))))))))))))))))))
#loc60 = loc("grad_scaler.step/aten::sub"(callsite("__torch_function__"("cerebras/pytorch/core/function_mode.py":116:0) at callsite("wrapper"("cerebras/pytorch/amp/wrap.py":89:0) at callsite("step"("cerebras/pytorch/optim/AdamBase.py":132:0) at callsite("decorate_context"("torch/utils/_contextlib.py":115:0) at callsite("wrapper"("torch/optim/optimizer.py":391:0) at callsite("wrapper"("cerebras/pytorch/optim/scheduler.py":99:0) at callsite("step_if_finite"("cerebras/pytorch/amp/grad_scaler.py":340:0) at callsite("step"("cerebras/pytorch/amp/grad_scaler.py":423:0) at callsite("optimizer_step"("cerebras/modelzoo/trainer/callbacks/precision.py":241:0) at callsite("optimizer_step"("cerebras/modelzoo/trainer/trainer.py":620:0) at callsite("training_step"("cerebras/modelzoo/trainer/trainer.py":559:0) at callsite("generated_trace_fn"("cerebras/pytorch/core/compile.py":190:0) at callsite("_run_train"("cerebras/modelzoo/trainer/trainer.py":769:0) at callsite("fit"("cerebras/modelzoo/trainer/trainer.py":723:0) at callsite("run_trainer"("cerebras/modelzoo/trainer/utils.py":178:0) at callsite("run_with_params"("cerebras/modelzoo/common/run_utils.py":182:0) at callsite("main"("cerebras/modelzoo/common/run_utils.py":115:0) at callsite("main"("run.py":35:0) at "<module>"("run.py":39:0)))))))))))))))))))))
#loc61 = loc("grad_scaler.step/aten::sqrt"(callsite("__torch_function__"("cerebras/pytorch/core/function_mode.py":116:0) at callsite("step"("cerebras/pytorch/optim/AdamBase.py":133:0) at callsite("decorate_context"("torch/utils/_contextlib.py":115:0) at callsite("wrapper"("torch/optim/optimizer.py":391:0) at callsite("wrapper"("cerebras/pytorch/optim/scheduler.py":99:0) at callsite("step_if_finite"("cerebras/pytorch/amp/grad_scaler.py":340:0) at callsite("step"("cerebras/pytorch/amp/grad_scaler.py":423:0) at callsite("optimizer_step"("cerebras/modelzoo/trainer/callbacks/precision.py":241:0) at callsite("optimizer_step"("cerebras/modelzoo/trainer/trainer.py":620:0) at callsite("training_step"("cerebras/modelzoo/trainer/trainer.py":559:0) at callsite("generated_trace_fn"("cerebras/pytorch/core/compile.py":190:0) at callsite("_run_train"("cerebras/modelzoo/trainer/trainer.py":769:0) at callsite("fit"("cerebras/modelzoo/trainer/trainer.py":723:0) at callsite("run_trainer"("cerebras/modelzoo/trainer/utils.py":178:0) at callsite("run_with_params"("cerebras/modelzoo/common/run_utils.py":182:0) at callsite("main"("cerebras/modelzoo/common/run_utils.py":115:0) at callsite("main"("run.py":35:0) at "<module>"("run.py":39:0))))))))))))))))))))
#loc62 = loc("grad_scaler.step/aten::div"(callsite("wrapper"("cerebras/pytorch/amp/wrap.py":89:0) at callsite("__torch_function__"("cerebras/pytorch/core/function_mode.py":116:0) at callsite("wrapper"("cerebras/pytorch/amp/wrap.py":89:0) at callsite("step"("cerebras/pytorch/optim/AdamBase.py":133:0) at callsite("decorate_context"("torch/utils/_contextlib.py":115:0) at callsite("wrapper"("torch/optim/optimizer.py":391:0) at callsite("wrapper"("cerebras/pytorch/optim/scheduler.py":99:0) at callsite("step_if_finite"("cerebras/pytorch/amp/grad_scaler.py":340:0) at callsite("step"("cerebras/pytorch/amp/grad_scaler.py":423:0) at callsite("optimizer_step"("cerebras/modelzoo/trainer/callbacks/precision.py":241:0) at callsite("optimizer_step"("cerebras/modelzoo/trainer/trainer.py":620:0) at callsite("training_step"("cerebras/modelzoo/trainer/trainer.py":559:0) at callsite("generated_trace_fn"("cerebras/pytorch/core/compile.py":190:0) at callsite("_run_train"("cerebras/modelzoo/trainer/trainer.py":769:0) at callsite("fit"("cerebras/modelzoo/trainer/trainer.py":723:0) at callsite("run_trainer"("cerebras/modelzoo/trainer/utils.py":178:0) at callsite("run_with_params"("cerebras/modelzoo/common/run_utils.py":182:0) at callsite("main"("cerebras/modelzoo/common/run_utils.py":115:0) at callsite("main"("run.py":35:0) at "<module>"("run.py":39:0))))))))))))))))))))))
#loc63 = loc("grad_scaler.step/aten::sqrt"(callsite("__torch_function__"("cerebras/pytorch/core/function_mode.py":116:0) at callsite("step"("cerebras/pytorch/optim/AdamBase.py":123:0) at callsite("decorate_context"("torch/utils/_contextlib.py":115:0) at callsite("wrapper"("torch/optim/optimizer.py":391:0) at callsite("wrapper"("cerebras/pytorch/optim/scheduler.py":99:0) at callsite("step_if_finite"("cerebras/pytorch/amp/grad_scaler.py":340:0) at callsite("step"("cerebras/pytorch/amp/grad_scaler.py":423:0) at callsite("optimizer_step"("cerebras/modelzoo/trainer/callbacks/precision.py":241:0) at callsite("optimizer_step"("cerebras/modelzoo/trainer/trainer.py":620:0) at callsite("training_step"("cerebras/modelzoo/trainer/trainer.py":559:0) at callsite("generated_trace_fn"("cerebras/pytorch/core/compile.py":190:0) at callsite("_run_train"("cerebras/modelzoo/trainer/trainer.py":769:0) at callsite("fit"("cerebras/modelzoo/trainer/trainer.py":723:0) at callsite("run_trainer"("cerebras/modelzoo/trainer/utils.py":178:0) at callsite("run_with_params"("cerebras/modelzoo/common/run_utils.py":182:0) at callsite("main"("cerebras/modelzoo/common/run_utils.py":115:0) at callsite("main"("run.py":35:0) at "<module>"("run.py":39:0))))))))))))))))))))
#loc64 = loc("grad_scaler.step/aten::div"(callsite("wrapper"("cerebras/pytorch/amp/wrap.py":89:0) at callsite("__torch_function__"("cerebras/pytorch/core/function_mode.py":116:0) at callsite("wrapper"("cerebras/pytorch/amp/wrap.py":89:0) at callsite("step"("cerebras/pytorch/optim/AdamBase.py":125:0) at callsite("decorate_context"("torch/utils/_contextlib.py":115:0) at callsite("wrapper"("torch/optim/optimizer.py":391:0) at callsite("wrapper"("cerebras/pytorch/optim/scheduler.py":99:0) at callsite("step_if_finite"("cerebras/pytorch/amp/grad_scaler.py":340:0) at callsite("step"("cerebras/pytorch/amp/grad_scaler.py":423:0) at callsite("optimizer_step"("cerebras/modelzoo/trainer/callbacks/precision.py":241:0) at callsite("optimizer_step"("cerebras/modelzoo/trainer/trainer.py":620:0) at callsite("training_step"("cerebras/modelzoo/trainer/trainer.py":559:0) at callsite("generated_trace_fn"("cerebras/pytorch/core/compile.py":190:0) at callsite("_run_train"("cerebras/modelzoo/trainer/trainer.py":769:0) at callsite("fit"("cerebras/modelzoo/trainer/trainer.py":723:0) at callsite("run_trainer"("cerebras/modelzoo/trainer/utils.py":178:0) at callsite("run_with_params"("cerebras/modelzoo/common/run_utils.py":182:0) at callsite("main"("cerebras/modelzoo/common/run_utils.py":115:0) at callsite("main"("run.py":35:0) at "<module>"("run.py":39:0))))))))))))))))))))))
#loc65 = loc("grad_scaler.step/aten::mul"(callsite("wrapper"("cerebras/pytorch/amp/wrap.py":146:0) at callsite("__torch_function__"("cerebras/pytorch/core/function_mode.py":116:0) at callsite("wrapper"("cerebras/pytorch/amp/wrap.py":89:0) at callsite("step"("cerebras/pytorch/optim/AdamBase.py":134:0) at callsite("decorate_context"("torch/utils/_contextlib.py":115:0) at callsite("wrapper"("torch/optim/optimizer.py":391:0) at callsite("wrapper"("cerebras/pytorch/optim/scheduler.py":99:0) at callsite("step_if_finite"("cerebras/pytorch/amp/grad_scaler.py":340:0) at callsite("step"("cerebras/pytorch/amp/grad_scaler.py":423:0) at callsite("optimizer_step"("cerebras/modelzoo/trainer/callbacks/precision.py":241:0) at callsite("optimizer_step"("cerebras/modelzoo/trainer/trainer.py":620:0) at callsite("training_step"("cerebras/modelzoo/trainer/trainer.py":559:0) at callsite("generated_trace_fn"("cerebras/pytorch/core/compile.py":190:0) at callsite("_run_train"("cerebras/modelzoo/trainer/trainer.py":769:0) at callsite("fit"("cerebras/modelzoo/trainer/trainer.py":723:0) at callsite("run_trainer"("cerebras/modelzoo/trainer/utils.py":178:0) at callsite("run_with_params"("cerebras/modelzoo/common/run_utils.py":182:0) at callsite("main"("cerebras/modelzoo/common/run_utils.py":115:0) at callsite("main"("run.py":35:0) at "<module>"("run.py":39:0))))))))))))))))))))))
#loc66 = loc("grad_scaler.step/aten::sub"(callsite("__torch_function__"("cerebras/pytorch/core/function_mode.py":116:0) at callsite("step"("cerebras/pytorch/optim/AdamBase.py":148:0) at callsite("decorate_context"("torch/utils/_contextlib.py":115:0) at callsite("wrapper"("torch/optim/optimizer.py":391:0) at callsite("wrapper"("cerebras/pytorch/optim/scheduler.py":99:0) at callsite("step_if_finite"("cerebras/pytorch/amp/grad_scaler.py":340:0) at callsite("step"("cerebras/pytorch/amp/grad_scaler.py":423:0) at callsite("optimizer_step"("cerebras/modelzoo/trainer/callbacks/precision.py":241:0) at callsite("optimizer_step"("cerebras/modelzoo/trainer/trainer.py":620:0) at callsite("training_step"("cerebras/modelzoo/trainer/trainer.py":559:0) at callsite("generated_trace_fn"("cerebras/pytorch/core/compile.py":190:0) at callsite("_run_train"("cerebras/modelzoo/trainer/trainer.py":769:0) at callsite("fit"("cerebras/modelzoo/trainer/trainer.py":723:0) at callsite("run_trainer"("cerebras/modelzoo/trainer/utils.py":178:0) at callsite("run_with_params"("cerebras/modelzoo/common/run_utils.py":182:0) at callsite("main"("cerebras/modelzoo/common/run_utils.py":115:0) at callsite("main"("run.py":35:0) at "<module>"("run.py":39:0))))))))))))))))))))
#loc67 = loc("lr/aten::add"(callsite("wrapper"("cerebras/pytorch/amp/wrap.py":153:0) at callsite("__torch_function__"("cerebras/pytorch/core/function_mode.py":116:0) at callsite("wrapper"("cerebras/pytorch/amp/wrap.py":94:0) at callsite("increment_last_epoch"("cerebras/pytorch/optim/scheduler.py":223:0) at callsite("step"("cerebras/pytorch/optim/scheduler.py":231:0) at callsite("schedulers_step"("cerebras/modelzoo/trainer/trainer.py":648:0) at callsite("training_step"("cerebras/modelzoo/trainer/trainer.py":561:0) at callsite("generated_trace_fn"("cerebras/pytorch/core/compile.py":190:0) at callsite("_run_train"("cerebras/modelzoo/trainer/trainer.py":769:0) at callsite("fit"("cerebras/modelzoo/trainer/trainer.py":723:0) at callsite("run_trainer"("cerebras/modelzoo/trainer/utils.py":178:0) at callsite("run_with_params"("cerebras/modelzoo/common/run_utils.py":182:0) at callsite("main"("cerebras/modelzoo/common/run_utils.py":115:0) at callsite("main"("run.py":35:0) at "<module>"("run.py":39:0)))))))))))))))))

